Model/final_mnist_model.tflite (tflite, 643788 bytes, 12 tensors)

arith.constant f4 [64]
00000000: c5ac 4abe 42d8 92be 6077 50be a5e9 463d
00000010: be78 8bbe 141b 3e3d eec3 96be b700 91be
00000020: 57b5 93be 7c1a efbe 34c6 07be d3f1 babd
00000030: e81e 3c3e b985 adbd 6e61 61bd 9aef 98be
00000040: 99ff dabe ef8f 33be 6178 c3be 2d0a 523d
00000050: 6f08 87be 7cb7 93be 1752 d3be f451 abbe
00000060: 1338 9ebe 6f69 afbe 466c 8fbd 82fc 2dbe
00000070: 6369 8e3e 26de 4abe ca63 c1be e3c5 34be
00000080: c99e 67be 4364 dcbe 04a2 5cbe 643c 4abe
00000090: 134d a9be 9cab 5cbe b6bd aabe 7968 5abe
000000a0: 87af a1be a9b3 a53e 5906 56be 081f 44be
000000b0: ac00 c9bd 6b34 08be 2f2d 41be e543 073d
000000c0: 71ef f2bd 8bc1 6ebd 4f94 1ebe 91f2 45be
000000d0: 7a1b ffbd 99c9 23be ea78 56be 5ef9 dfbe
000000e0: 147a cbbe b164 a4be 29b9 44be c26c cabe
000000f0: 39cb a8be 08be 03bf f60a 84be 9f15 79be
-0.19792469 -0.28680617 -0.20358038 0.048562665 -0.27240556 0.046412542 -0.29446357 -0.28320858
-0.2884929 -0.46699893 -0.13259202 -0.091281556 0.18371165 -0.08472771 -0.055024557 -0.298703
-0.4277313 -0.17535375 -0.3817778 0.051279236 -0.26373622 -0.28850925 -0.41273567 -0.33460963
-0.30902156 -0.34260127 -0.070030734 -0.16990855 0.2781478 -0.19811305 -0.37771446 -0.17653613
-0.22619165 -0.43045244 -0.21546179 -0.197496 -0.33066615 -0.21549839 -0.33347863 -0.21328916
-0.3157923 0.32363632 -0.20900859 -0.19152462 -0.09814581 -0.13301246 -0.18864892 0.033023734
-0.11862076 -0.058290046 -0.15486263 -0.19330813 -0.124564126 -0.15994872 -0.20944563 -0.4374494
-0.39741576 -0.3210807 -0.19211258 -0.395361 -0.32967547 -0.5146184 -0.25789613 -0.24324654

arith.constant1 f4 [10, 64]
00000000: 0d41 fab9 d9b3 39bc d741 c5bb 255a 35bc
00000010: a236 88bc d64a d63c 4831 a4bc 7190 aabc
00000020: e8c1 0cbc 8e45 64bb ba87 123d 9a5c 523c
00000030: b6f8 b6bc 94d9 79bc aff9 833c 8233 84bc
00000040: e9a7 81bc d428 69bc 33a2 adbc b5d1 8fbc
00000050: 917b 203c 77a0 56bc 1281 a53c cabf 85bc
00000060: dec1 e03c 25f2 b3bc 0802 6abc db59 7fbc
00000070: 954e 9e3c a67f 9f3c 8dad 86bb 3af1 453c
00000080: 6d95 07bc 5bbc adbc da68 75bc f01c 7739
00000090: 5dbd 97bc ac51 ab3c 6a52 07bc e84c 293c
000000a0: b10e 47bb a4a7 6ebc 5dc3 8d3c 15de 8abc
000000b0: d236 cf3c a750 abbc a1f0 593c 5cd7 813c
000000c0: b0f5 afbc 198c 29bc 6ca9 24bc ab5f 2ebc
000000d0: 77dd 8c3c c7b9 8cbc bc92 68bc 2166 8dbd
000000e0: a371 943c 0139 093d d777 153c 1814 b0bc
000000f0: 14c2 32bc f6a7 0abc 63b6 453c 0db8 4a3c
00000100: 88e2 263c 88a6 bd3c d3a5 30bc 9cfc ce3c
00000110: acca de3a 4f66 823c be7f a73c 72b3 8cbc
00000120: d1cb 9abc edb6 a1bc fdb1 f43c 5e7d ab3b
00000130: a20f 433b 39d1 663c 4182 453c 1db2 933d
00000140: 1b4a 273d 3d0e 04bc cc9d c7bc 70f4 c43a
00000150: 4353 67bc 37d5 c4bc e58c f1bb e3dd 6dbc
00000160: 98ba b1bb 5d74 9ebb c9d0 c5bb ddaa 8b3c
00000170: 98ce 8cbc 7c65 e0bc 8e82 e53c 6855 3bbc
00000180: 81eb 01bd 6107 a13c 8b1d 913c fe77 873c
00000190: 59f1 c83c eaf2 853c 8f09 30bc a660 8abc
000001a0: 5f8b 713c 69bc 3c3c 94dc 4abc 0dc5 7abc
000001b0: e8ba 42bc f14f 473c 4740 033c 5c1b 4f3c
000001c0: a8d7 eabb e387 02bc 1298 c53c 1661 95bc
000001d0: e367 44bc 8553 8bbc 8c4e 05bc d280 6d3c
000001e0: 3052 3abb 0561 06bc 569c abbc d2b6 9dbc
000001f0: cade d23b 9d5f e33c d9d3 66bc b091 5abc
00000200: 2f95 89bc a827 973c 71e2 13bc 5aca bcbb
00000210: 17a7 803c 3dc1 8abc 5d16 a0bc bc2b adbc
00000220: e48a 06bc 3724 ba3a b9b9 b0bc 5b2b 333c
00000230: 9215 be3c a5a6 93bc 61cf adbc 8257 47bc
00000240: b106 6fbc b800 0b3c 7e0d 233c 457f 5dbc
00000250: ba40 1e3c 4867 94bc 9342 94bc e221 2ebc
00000260: a8f8 c0bb 075d adbc c512 d4bb 3ed6 77bc
00000270: cd09 963c 76cc 9ebc 1fea 033c 03af 363c
00000280: 7f00 493c a7b4 a3bc bea5 c0bc 5d9a 683c
00000290: 7cf9 01bc 97dd 823c 8563 3abc 06da 4d3c
000002a0: 9476 6c3c ee90 773c 38d6 76bc 8cfb 7cbc
000002b0: dde8 c93c 86d2 713c a76b a4bc 5c62 a9bb
000002c0: 3daa 3b3c 6874 493c 6952 89bc c6d9 8b3c
000002d0: 1f52 22bc 91e2 13bc 9ff5 163c 8230 303d
000002e0: cc1a a13c 44bd 0bbc e7e7 b1bc 6f2c 8cbc
000002f0: e5e1 e3bb 1841 9f3c f481 773c b98a 043c
00000300: 9058 41bc 8851 9f3c 2e3d 843c 8390 a23c
00000310: b634 8a3c bda7 2abc 7258 8e3c 429d 263c
00000320: ca9f 0cbc 85a6 adbc d3ac 89bc 1dd0 c7bb
00000330: f758 2fbc 4b7f 323c de4b 4abc 1a50 f53b
00000340: 70ef 98bb 796b 973c 40cc 303c d466 6ebc
00000350: a2ee 733c ae00 793c 16ad d4bb 5fd2 a43c
00000360: 83d4 da3c 7146 8a3c 9ebb 12bc 1eb5 76bc
00000370: 216c 0abc 0562 babc a02b 91bc 7765 363c
00000380: ac78 fb3b cfb5 63bc d889 96bc 2adf c7bc
00000390: 8db8 cfbb 615c 31bc 9414 16bc f9f0 de3b
000003a0: c7ae 723c 5877 7c3c 8fd7 9bbc abaa a63c
000003b0: b731 42bd 61b4 783c 3fc0 cc3b 6ddf 573c
000003c0: b506 483c 6bc8 123c 5c03 29bc f28b 773c
000003d0: 44c4 443c be5a 253c 6daf 423c 412b a7bc
000003e0: c56f b23c cc26 07bb 0661 253c 1ec4 993b
000003f0: 0b75 50bc a7e4 d9bb 2e2a 4dbc bc64 3ebc
-0.00047732182 -0.011334383 -0.0060198116 -0.011068855 -0.016627613 0.026158731 -0.02004303 -0.020820828
-0.008591153 -0.0034831497 0.03577397 0.012839461 -0.022335391 -0.015249629 0.01611027 -0.016137842
-0.015827136 -0.014230926 -0.021195507 -0.01755605 0.0097950855 -0.013099781 0.020203147 -0.016326804
0.027436193 -0.02196605 -0.014282711 -0.015585388 0.01932458 0.019470047 -0.0041100443 0.012081439
-0.008275372 -0.021207979 -0.014978612 0.00023566536 -0.018522913 0.020912968 -0.008259395 0.010333277
-0.0030373747 -0.014566336 0.01730507 -0.0169516 0.025294695 -0.020912481 0.013301999 0.015849762
-0.021479458 -0.010348343 -0.010050159 -0.010642926 0.017195446 -0.01717843 -0.01419514 -0.06904245
0.018120592 0.03350163 0.00912281 -0.021493956 -0.01091053 -0.008462897 0.01206741 0.012372983
0.010185845 0.023150697 -0.010781723 0.025266938 0.0016997657 0.015917925 0.020446654 -0.01717541
-0.018896015 -0.019740546 0.029870028 0.005233451 0.0029763957 0.0140879685 0.012054981 0.07211707
0.040842157 -0.008060035 -0.024367236 0.0015026461 -0.014118972 -0.02402745 -0.0073715323 -0.014518234
-0.005423855 -0.004835649 -0.006036852 0.017049247 -0.017188355 -0.027392142 0.028016355 -0.011433937
-0.031718735 0.019656839 0.017714282 0.016536709 0.024529146 0.016351182 -0.010744466 -0.016891789
0.014742701 0.01151953 -0.0123816915 -0.01530577 -0.011885382 0.012165056 0.00801093 0.0126408
-0.0071668215 -0.007966968 0.024120364 -0.01823477 -0.011987659 -0.017007599 -0.008136403 0.014496045
-0.0028430335 -0.008201842 -0.02094857 -0.019252215 0.00643525 0.027755553 -0.014088594 -0.013340399
-0.01679477 0.018451527 -0.009026156 -0.005761427 0.015704675 -0.016937846 -0.019541914 -0.021139018
-0.008211825 0.0014201467 -0.021572934 0.01093563 0.023203645 -0.018023798 -0.02121705 -0.01216686
-0.014588998 0.008484058 0.009951947 -0.013519113 0.009658987 -0.018115655 -0.018098151 -0.0106281955
-0.005889017 -0.021162523 -0.006471964 -0.015126763 0.01831522 -0.019384604 0.008051424 0.0111501245
0.012268185 -0.019983603 -0.023516532 0.014196959 -0.007933017 0.015974803 -0.011376266 0.012564188
0.014432568 0.0151102375 -0.015065722 -0.015440833 0.02464717 0.014759665 -0.020070864 -0.005169196
0.011454162 0.01229582 -0.016762929 0.017071616 -0.0099072745 -0.009026186 0.009213834 0.04301501
0.019666098 -0.008529011 -0.021717025 -0.017111031 -0.006954419 0.019440219 0.015106667 0.008089715
-0.0118009 0.019448057 0.016142454 0.0198443 0.016870838 -0.0104159685 0.017376158 0.010169329
-0.008583019 -0.021197567 -0.016806042 -0.006097807 -0.010702363 0.010894607 -0.01234719 0.0074863555
-0.004667215 0.018483864 0.0107908845 -0.014550883 0.014888437 0.015197916 -0.00649036 0.020119844
0.026712662 0.016879292 -0.008955864 -0.01505783 -0.0084486315 -0.022751817 -0.017720997 0.01113259
0.0076742973 -0.013898327 -0.018376276 -0.024398405 -0.006339139 -0.0108252475 -0.00916018 0.0068036285
0.014812178 0.015409313 -0.019023685 0.020345053 -0.047410693 0.015179724 0.0062485035 0.013175827
0.01220863 0.008958916 -0.010315742 0.015109049 0.012009684 0.010092435 0.011882645 -0.020406367
0.021781811 -0.002062249 0.010093933 0.0046925684 -0.012723218 -0.006649572 -0.012522263 -0.011620697

arith.constant2 f4 [10]
00000000: 87bf 7d3f c8f2 1040 520e 9c3f 3048 66c0
00000010: dc2f 5340 1136 123f 7c0f 65be bf41 8d3f
00000020: 21db d13f 3b33 9c3f
0.9912037 2.2648182 1.219187 -3.598156 3.299796 0.5711375 -0.22369188 1.1035689
1.6394998 1.2203134

arith.constant3 f4 [64, 3, 3, 96]
00000000: 760e ce3c 518a bdbc b61d 49bd 4ccc 7fbd
00000010: b3ca 613b 3e6b 483d b1a1 3a3e 1069 5e3e
00000020: 99fa dfbd ce8c 19be aa5f 3abc eb4a 94bd
00000030: e12e f2bc 2e86 bebd e6a1 a13e dc69 a8bd
00000040: f74b a93c cacc 1cbe ed05 a93d 1fae f7bd
00000050: b432 973e e21a c1bd 956b 9f3c 609b 653d
00000060: de32 d83b 22cf 1abd 4331 8cbd 569e 583e
00000070: 90e5 24be 4c5d c0bd 10c8 75bd 2da1 653d
00000080: 34b0 00bd 5680 c2bd b4ba 78bd 146d b23c
00000090: f6bd 433e 6319 65be 69e3 c73c e3b5 86bd
000000a0: d06d 733e 78a9 68be 6707 f53d 540f c6bd
000000b0: 7ae5 913d ba71 e5bc 8933 80be 903b 7abe
000000c0: 50ac 763d b6ea 543e 6449 4f3e 84ec 17bd
000000d0: 464a c9bd 0f30 03be 66ca 09bd b4cf 72bc
000000e0: c673 4b3e 3150 20be 308c 82be ac0d 83bd
000000f0: 651e c9bd f2c8 05be f5d1 8f3e 3947 10be
00000100: 3a45 823d 9631 33bd 0cc7 0ebe c0b0 cc3d
00000110: 6ed5 523e a267 85be 0775 043e 802a 7cbd
00000120: 2484 fcbd 8eb4 f43d 6b89 b43d d236 9bbd
00000130: 130b 10be c786 ea3c 5756 333e 8fc0 25bd
00000140: 769c 0dbd 90a0 42bd a5ca a93d b655 f13d
00000150: 34c3 2d3e d9fb 2a3e 963a 7f3c df74 bcbc
00000160: 285e 163e a8d8 943e f57c dc3c 6f30 c93d
00000170: 6c97 44bc 3f59 90bc d99f ff3d defb 363d
00000180: 337c d7bd 787b a63d 9587 a5bd 2db7 cabe
00000190: d257 cebd 653e 593d 15b3 0b3e ad28 9d3e
000001a0: e265 39be 3962 2cbd 0658 e4bd f8f4 79be
000001b0: 9c4d 083e 01f2 a23c 705d 233e bb16 30be
000001c0: 5e12 25bd 8875 a5be a37e c0bd e561 b6bd
000001d0: 0b91 8b3e d9be 4a3e bb50 6bbd 283e 863c
000001e0: 8f9b 5d3e 1f80 89bd ee3a 95be ca50 b03e
000001f0: c10a c7bd 2e05 683e 202b 0fbc c622 bdbd
00000200: aa1c 763d 04a3 45be 0d44 96be 1eee 083e
00000210: a996 383e 8cd8 5fbc 3f10 8b3c bc93 8abe
00000220: 2e41 983e d2f9 43be c4e6 ec3d 186a 7ebb
00000230: a2c4 27be 720a 043e 1fe0 90be 9471 05be
00000240: 3931 a23c d62d 823e b39a fe3d a7fa b13c
00000250: 4f6c 99be 10b1 7d3d 2899 30be a5a3 59be
00000260: 8faa 1e3e 66f1 18bd ac5e 6d3d 8804 7fbd
00000270: 37eb 39be 597c b8bd 3f22 e73d c792 cc3d
00000280: ee7b 6e3c c2cb 343d d0b7 053e 8bca c63d
00000290: bbe0 e23c f83a 0fbe 0d76 02be 3c00 263d
000002a0: f968 8abe 6317 aabd 6b17 52bd 995b 91be
000002b0: 5a40 81bd d7ec 03be 5f41 823d 8e32 1c3e
000002c0: 9217 20bd 5770 8c3d 1c81 6bbd 5703 7f3d
000002d0: b0c4 c03d ddf4 8f3e 3d5e 753d a820 41be
000002e0: 2afe 7f3d d107 b93d 9d7b d0bd 0636 71bd
000002f0: 0c6a a3bc 57ea 71bd c5f4 883e 33bd 883b
00000300: c828 c1be be44 bbbe 5bd3 46be 42d1 99be
00000310: 7bb1 233e 8807 a1bd b1ea 96bd 6312 d43c
00000320: cce6 80be b5ca 53be 8cb6 43bd 478d 953c
00000330: 53b2 b3bd 65df 03be fade 86be 63f4 ddbd
00000340: 7b3e 55be 8585 47bd bbe6 acbe e465 243b
00000350: 11d3 963d 60b8 fdbd b921 a9be 4e76 063d
00000360: 3011 58bd 4e52 00be 7cc7 d5be cca3 453e
00000370: def8 2abe b324 1f3e 10fe 70bd ac8e 1dbe
00000380: d49e f7bd 7c19 09bd 56ac 6d3c b87d 83be
00000390: 370c a03d 9be6 1fbe d5e5 79bd e1b0 69be
000003a0: fc4f 963e efdd 6f3d 8c16 3e3e b4ca 22be
000003b0: 118f 88be 5aae cebc 402b 11be 0fed 9cbd
000003c0: 1e24 103e 93e5 543e 4cb3 bbbd be3a 46bd
000003d0: e043 64be fd62 a6bd 4299 f2be 4852 02bf
000003e0: f65c 17bf cc14 14be 81e7 33be b35f d73d
000003f0: bd5a 9fbe 85bb 2dbe 0300 b53d 2b02 55be
0.02515338 -0.023137243 -0.0491006 -0.062450692 0.0034453094 0.0489304 0.18225743 0.21719766
-0.109364696 -0.14995119 -0.011375347 -0.07240852 -0.02956337 -0.093029365 0.3156883 -0.08223316
0.020666106 -0.15312496 0.082530834 -0.12093758 0.2953087 -0.094289556 0.019460479 0.05605638
0.0065978607 -0.037795193 -0.068453334 0.2115415 -0.16103196 -0.09392795 -0.060005248 0.056061912
-0.03141804 -0.094971344 -0.06072493 0.021780528 0.19115433 -0.22372966 0.02440043 -0.06577661
0.23772359 -0.22720897 0.119643025 -0.09670892 0.07123847 -0.02800833 -0.25039318 -0.24436784
0.060222924 0.2079266 0.2024284 -0.037090793 -0.0982862 -0.12811302 -0.033640288 -0.014820028
0.19868383 -0.1565559 -0.2549758 -0.06399092 -0.098202504 -0.13064936 0.28089872 -0.1408967
0.0636086 -0.04374846 -0.13943118 0.0999465 0.2058923 -0.26055628 0.12935267 -0.06156397
-0.12329891 0.119485006 0.08815273 -0.075788155 -0.14066724 0.02862872 0.17513405 -0.04046684
-0.03457304 -0.047516406 0.082906045 0.11783926 0.16968995 0.16697635 0.015577933 -0.023004947
0.14684355 0.29071546 0.026915053 0.09823691 -0.011998992 -0.01762068 0.124816604 0.044673793
-0.10521736 0.081290185 -0.08082501 -0.39592877 -0.10075344 0.05303802 0.13642533 0.30695096
-0.18105271 -0.04208586 -0.11149602 -0.24409854 0.13310856 0.019890787 0.15953612 -0.17196171
-0.04030072 -0.32316232 -0.09399154 -0.08905391 0.27259097 0.19799365 -0.057450037 0.01638706
0.21641372 -0.0671389 -0.29146522 0.34436637 -0.09718848 0.22658226 -0.008738309 -0.09235148
0.06008593 -0.19300467 -0.29348794 0.13372084 0.18026222 -0.013662469 0.01697552 -0.27065837
0.29737228 -0.19138268 0.115674525 -0.003882056 -0.16383603 0.1289461 -0.2829599 -0.13031608
0.019798862 0.25425595 0.1243185 0.021725966 -0.29965445 0.061936438 -0.17245924 -0.21253832
0.1549475 -0.03733959 0.057951614 -0.06226018 -0.18156134 -0.090080924 0.11285829 0.09988933
0.014555914 0.04413963 0.130584 0.09706601 0.02769505 -0.13987339 -0.12740345 0.040527567
-0.27033213 -0.08305242 -0.051291864 -0.28390196 -0.06311102 -0.12883316 0.06360125 0.1525366
-0.03908498 0.068573646 -0.057496175 0.062259044 0.09412515 0.28116503 0.059904326 -0.18860114
0.06249825 0.09034694 -0.10179827 -0.05888941 -0.019948028 -0.059061375 0.26749244 0.004172945
-0.37726426 -0.36575884 -0.19416563 -0.30042464 0.15985672 -0.078627646 -0.073689826 0.025887674
-0.25176084 -0.20682795 -0.047781512 0.018255843 -0.08774247 -0.12878187 -0.26341993 -0.10837629
-0.20824616 -0.04871132 -0.33769783 0.0025085146 0.073644765 -0.12388682 -0.3303354 0.032827668
-0.052750766 -0.12531397 -0.41753757 0.19300765 -0.16696498 0.15541343 -0.058836043 -0.15386456
-0.12090841 -0.03347157 0.01450642 -0.25681853 0.0781483 -0.15615313 -0.0610102 -0.2282138
0.29357898 0.05856126 0.18563288 -0.15897638 -0.2667165 -0.025229622 -0.14176655 -0.07662403
0.14076278 0.207907 -0.091650575 -0.048395865 -0.22291517 -0.08124349 -0.4738255 -0.509068
-0.5912622 -0.14461058 -0.1756878 0.105163 -0.31123915 -0.16966064 0.08837893 -0.20801608

arith.constant4 f4 [64, 1600]
00000000: a07c a4be 8127 57bd a8b3 873b f2d3 e03d
00000010: ec79 0f3d 29c0 f8bd 90b7 6ebd 5f45 46bd
00000020: 87ab 533e 906a bc3d 2b15 02be 20e4 443e
00000030: c955 24be cc3a 85be 3127 d23c f657 17be
00000040: 79c2 ffbd 0502 bfbd 6e73 9a3a 6de3 13be
00000050: deba 3f3e fb94 07be 07b7 cebd 3991 7bbe
00000060: 575b 4f3e 07de 8e3d da22 9c3e ac9d 27be
00000070: e4fa 53bc 0a0c 133d d06f 8a3e 02a8 8c3e
00000080: 4f8b 5f3c 9feb e3bd e64e db3b a5c7 a43e
00000090: f130 b5be 0f60 513e cba9 0e3d 2027 643e
000000a0: 7294 06bd 6f41 19bc ff8d 83be 42cf 93bd
000000b0: 7ad4 98be e46a a2bc 6620 ebbd c8d8 123e
000000c0: 7eff 8ebe e285 26be 3e03 57bc 5cb0 0bbe
000000d0: 0545 773d f0a2 97be da42 003e 425a 04bd
000000e0: a7a2 87bd 4a1a a03c 62d8 163e e1a4 753d
000000f0: 7340 a53c 68ab e7bc 077b 123d fe77 7abb
00000100: 00e2 8cbd b0e5 2fbe 9fd2 6c3d 69ca 34be
00000110: f260 013d 8d47 34be e1ed 823c 4bb9 0e3d
00000120: 5054 78bd 851e dfbd a45f 5c3e 77fe 40be
00000130: f05b 363d e230 c7be ab55 a6bc e34c 31bd
00000140: 6d02 df3d 73dc 71be d1e5 d8bd a729 44be
00000150: 70c5 48bd 05c9 75bd 2cd3 383d ab6c 46be
00000160: d21d e23d ad8c 873e 7fbf 313d fd6f afbd
00000170: 62ea 9cbe 7f05 463e 8342 11be 023a fa3d
00000180: f310 673e 519b 84bd a53a 27be 5ca2 723e
00000190: ab22 91be 30e9 923d 3cf7 e1bd 57a5 6dbe
000001a0: c61e cfba eee1 a4bd 85f4 02be 07ed b4bd
000001b0: 838d 47be 6013 0c3e 2f35 bbbd c75b e6bd
000001c0: e545 95be dfe4 bf3d 9270 b2be 6f54 16be
000001d0: 75db 8dbd 2dcb 8fbe 641e 4fbe d425 203c
000001e0: 8e06 a13d 4c96 67bb 7e38 223e 6981 37be
000001f0: 7eb1 a0bd 5193 1dbe 11c5 23be 9663 0cbe
00000200: 2af9 473c 62a1 52bd 2469 9bbd ee44 33be
00000210: fbdc fa3d 91ff 8ebd a390 05bc a91d 0e3d
00000220: dae3 ce3d 0757 44be 6ff6 4e3e 847b 80be
00000230: 73d7 e93c c517 e3bd e9df 86be d55b 00be
00000240: 526b 923c a89a 8bbe b45b 0abd b160 61bd
00000250: 8e43 803e 56ad 2bbe 33b6 3abe 81e6 9abe
00000260: 05e8 4abe 7847 6f3d 4731 283c 00aa 4cbe
00000270: 76a2 aabe 1197 223e 0a0a 8bbd b821 943d
00000280: f955 a53d 8156 4ebe f2ca 3bbe 0867 2b3c
00000290: fd62 03be 9466 043d 0cec 9a3d e04b 9abe
000002a0: 9858 f33a ceb4 a7be c355 a3be 196d 9bbe
000002b0: 4d00 acbd a7a6 7f3c 340d c4bc 4c9d 17be
000002c0: 058c cfbc a182 6e3d ca32 02bd f535 79be
000002d0: ceeb f3bd d445 8cbe 337a 3e3d 015e 22be
000002e0: c5ca 4a3d d28b 503c d98d 68bb 5c38 ddbe
000002f0: 62c7 4bbd ecd7 9abe 2bfd 8abd 6f73 b7be
00000300: e9db c53d ed45 11be 3a8a 373d 6ee8 87be
00000310: 14de 1abe 7834 fdbd aa97 da3d 3d77 68bd
00000320: 7e0c 8f3b 790a 70be ad51 5bbd ddbc 70be
00000330: 7720 b8bc 2777 61bc 225e aebe 39dc 41be
00000340: c969 543d c45c 5cbe 5c19 8ebe 8849 47be
00000350: 9c35 90bd 535c c6bd 53de 25be 4d96 8abd
00000360: ffc8 9bbd da17 98bd d167 34bd d96a 41bd
00000370: 56e2 71be d0a2 e53c 7bba 873d 5b8f 433e
00000380: e690 593d 0f06 99be 015b 9cbd 1037 173e
00000390: 6b17 68bd 983b 1f3d 8834 c7bd 47fc bebe
000003a0: 503f 0dbe aaf0 e4bd f62a c8bd 3bac 67be
000003b0: e6f4 bebc a07d 37bc 6469 89bd 0b95 a5bd
000003c0: 970f f23c ae28 ebbb f74a 7d3d 605a 6c3d
000003d0: b2fa 2abe e72b 44be 48c2 183c 0033 6cbe
000003e0: b870 67bd ffb1 10be 06db debc fa84 b0be
000003f0: d156 89be ef25 abbe 54de 5bbd 03dd d3be
-0.3212633 -0.05252791 0.0041412897 0.10977925 0.035028383 -0.12146027 -0.058280528 -0.048406
0.20670901 0.09200013 -0.12703387 0.19227648 -0.1604835 -0.2602142 0.025653454 -0.14779648
-0.124882646 -0.09326557 0.0011783668 -0.14442225 0.18723628 -0.13240425 -0.100935034 -0.24567117
0.20249687 0.06975942 0.3049534 -0.16368741 -0.012938235 0.035900153 0.2703843 0.2747193
0.013644054 -0.111289255 0.006692755 0.32183567 -0.35388902 0.204468 0.034829896 0.2228055
-0.032856412 -0.0093539795 -0.25694272 -0.07217266 -0.29849607 -0.01982636 -0.11480789 0.14340508
-0.279293 -0.1626201 -0.013123332 -0.13641495 0.060368557 -0.296165 0.12525502 -0.03231264
-0.0662282 0.019543786 0.14730981 0.059971694 0.020172333 -0.028279975 0.03576186 -0.0038218494
-0.068790436 -0.17177463 0.05781805 -0.17655338 0.031586595 -0.1760542 0.01598257 0.034844678
-0.06062728 -0.10894493 0.21520859 -0.1884707 0.044521272 -0.38904482 -0.020304522 -0.043286216
0.108891346 -0.23619251 -0.10590709 -0.19156514 -0.049016416 -0.06000616 0.045123264 -0.19377391
0.11040844 0.26474515 0.043395516 -0.08566282 -0.3064757 0.19338034 -0.14185528 0.12218095
0.2256506 -0.06474937 -0.16330965 0.23694748 -0.28346762 0.07173383 -0.11033484 -0.23207603
-0.0015802018 -0.08050905 -0.1278859 -0.08834272 -0.19487576 0.13679266 -0.09141003 -0.11247974
-0.29154888 0.093698256 -0.3485151 -0.14680646 -0.06926624 -0.28084698 -0.20226437 0.009774644
0.07862578 -0.0035337387 0.15841863 -0.1792046 -0.07846354 -0.15388228 -0.15993144 -0.13709864
0.012205401 -0.051423438 -0.07588413 -0.17506763 0.1224918 -0.06982339 -0.00815216 0.034696255
0.10102053 -0.19173823 0.20211194 -0.25094235 0.028545117 -0.11088518 -0.26342705 -0.12535031
0.01787344 -0.2726643 -0.03377886 -0.055023853 0.2505154 -0.16765341 -0.18233566 -0.30253986
-0.19815071 0.058417767 0.010265655 -0.19986725 -0.33327073 0.1587794 -0.06789024 0.07232994
0.080730386 -0.20150186 -0.18339136 0.010461576 -0.1283073 0.03232439 0.075645536 -0.30136013
0.0018565832 -0.3275513 -0.31901368 -0.30356672 -0.08398495 0.015603698 -0.023932077 -0.14806098
-0.025335321 0.058230046 -0.031786717 -0.24336989 -0.119102105 -0.27397025 0.046503257 -0.15856172
0.049509782 0.012728648 -0.0035484938 -0.4320706 -0.049750693 -0.3024286 -0.06786569 -0.35830256
0.09661085 -0.14186831 0.044809557 -0.26544517 -0.15123779 -0.12363523 0.10673459 -0.05675434
0.004365503 -0.23441495 -0.05354469 -0.23509546 -0.022476418 -0.013761318 -0.34056193 -0.18931665
0.051858697 -0.21519762 -0.27753723 -0.19461644 -0.07041475 -0.09685578 -0.16198091 -0.06766949
-0.07606696 -0.07426424 -0.04404432 -0.04722104 -0.23621497 0.028031737 0.06627365 0.19097655
0.0531167 -0.29887435 -0.07634545 0.14767098 -0.056662958 0.038875192 -0.097268164 -0.37301847
-0.13793683 -0.111787155 -0.09773819 -0.22624294 -0.023310136 -0.011199385 -0.06709555 -0.08085068
0.02954845 -0.0071764803 0.06183907 0.057703376 -0.16697195 -0.19157372 0.009323664 -0.2306633
-0.05650398 -0.141304 -0.027204048 -0.34476453 -0.26824048 -0.3342738 -0.053678825 -0.41379556

arith.constant5 f4 [64]
00000000: ba2e 12be 4f30 ac3e 9473 ce3d 65a1 4d3e
00000010: bf0e 343e 15c9 573e 43f4 c43d dfaa 103f
00000020: a709 9f3d 7964 28be 4129 a63b 230a 0a3e
00000030: 35b4 0ebe ffa5 e23e 6fcb b73e 1cff f6bd
00000040: 29ed 39be 418f 0d3f 490f 3e3e e091 253e
00000050: 5fcc 3d3f 3df3 593d cf8a 47be 1db3 22bd
00000060: a0e1 f23e eb48 973d e42b a6bd 7e6f 6bbd
00000070: 98b2 793d a750 2ebd c519 91bd d21d 773e
00000080: 338a 8fbd ac91 a0bb 3605 5a3e 0d64 c43e
00000090: 899b 6abd 4f7b 743e 676b 793e 30d2 8b3e
000000a0: 3a1d 013f 17c8 933e 89c4 f73e 60d1 22bd
000000b0: b5a0 68be 6b25 df3e ba06 9b3e 6b8d 393f
000000c0: abed cf3e f5fa 833e 7513 80bd f774 f83e
000000d0: 35cd 3a3e 82f2 b53e db88 e43e 4c6f d3bc
000000e0: 51b2 8c3e 11b3 da3d 5612 4c3f ccb3 1c3e
000000f0: 77d0 903c 6eb8 c43d fd96 da3e 54fc 953e
-0.14275637 0.33630607 0.100806385 0.20081098 0.1758375 0.210728 0.09616902 0.5651073
0.07765513 -0.16444577 0.005070836 0.1348043 -0.13935931 0.4426727 0.35897395 -0.12060377
-0.18156876 0.55296713 0.18560518 0.16168928 0.7413997 0.053210486 -0.19486545 -0.039721597
0.47437763 0.07386955 -0.0811384 -0.057479374 0.060961336 -0.042557385 -0.07084993 0.2413247
-0.07008781 -0.004900178 0.2129105 0.38357583 -0.057277236 0.23875163 0.24357377 0.27308798
0.5043522 0.28863594 0.48392132 -0.039750457 -0.22717555 0.43583235 0.3027857 0.7248141
0.40611014 0.25777403 -0.06253711 0.48526737 0.18242343 0.3553658 0.44635662 -0.025809906
0.27479795 0.106786855 0.7971548 0.15302962 0.017677529 0.0960549 0.4269332 0.29294074

sequential_1_1/batch_normalization_1_2/batchnorm/mul f4 [64]
00000000: f86a 9a3e ab26 b03e 0a6c d03e 12b4 173e
00000010: 7d20 043f 1d64 493e 6d03 b23e d5ae 743e
00000020: d3bf 753e 5261 ce3e eef3 7f3e ee1e 933e
00000030: 94d7 d43d aa4f 393e 4018 bb3e 83b3 2a3f
00000040: 9e6d df3e 7d3a eb3d 37eb f03e 5fdf ce3d
00000050: 88c4 833e 338a cc3e 38dd 143f 88a6 753f
00000060: 987e 413e 7560 873e 4a64 923e 8e71 c73e
00000070: 7401 953d 761b 8d3e 9429 003f fbc6 db3e
00000080: 007e b33e e1e6 c03e df47 c43e 6e70 a23e
00000090: 96cc b43e cb5b 013f af23 8e3e 43f8 d63e
000000a0: 3d13 a03e 2a07 d53d af0e b43e a7c6 183f
000000b0: 98ac 743e 09e0 c53e 5640 933e 386f 1a3e
000000c0: 997e d93e 3679 613e c380 c53e 0c76 563f
000000d0: cf13 b33e 2654 563e 5738 573e 67a2 c43e
000000e0: f8f1 863f 0db0 dd3e 5e57 a33e 62da 9d3e
000000f0: 0cfe f93e 70dc 143f 27a2 153f 643e 613e
0.30159736 0.344045 0.40707427 0.14814785 0.51612073 0.19667096 0.3476824 0.23894818
0.23998956 0.40308625 0.24995396 0.28734535 0.10392681 0.18096796 0.3654194 0.66680163
0.4363832 0.11485765 0.47054455 0.101011984 0.2573588 0.39949188 0.58150053 0.9595723
0.18895948 0.26440778 0.2859214 0.38953823 0.07275668 0.27560014 0.50063443 0.42925248
0.35057068 0.37676147 0.38336083 0.31726402 0.35312337 0.5053069 0.277616 0.41986284
0.31264678 0.10401757 0.35167453 0.5967812 0.23893964 0.38647488 0.28760022 0.15081489
0.424794 0.22018895 0.385748 0.83773875 0.3497605 0.20930538 0.21017586 0.38405153
1.0542593 0.4329838 0.31902593 0.30830675 0.48826635 0.5814886 0.5845055 0.21996456

sequential_1_1/batch_normalization_1_2/batchnorm/sub f4 [64]
00000000: 5802 f7be 4eaf f0be 782f 03bf 8825 ccbe
00000010: 0c80 07bf b94b d3be d698 06bf ffe3 00bf
00000020: fc07 c6be 79b1 d8be 4657 5cbe da89 bcbe
00000030: 3017 35bf 4c3f fcbe d091 05bf 744b b5be
00000040: 6fcb 00bf edfe 0cbf 05c9 b9bd f568 03bf
00000050: f19e 10bf a8ed efbe fc48 21bf 13e4 f6bd
00000060: aeba 21bf 7521 c1be 5275 d6be 9644 b4be
00000070: 119f 73bf c92f 8cbe 8bb3 aebe 0bec d4be
00000080: 12e1 95be d6b7 05be 0e20 1bbf 5a8c 88be
00000090: aab6 5ebe 837a 93be be9b 22bf aea3 9cbe
000000a0: afce d1be 7972 2bbf 2eab 36be c3ee 99be
000000b0: 98d3 7fbe 8094 9ebe f4e7 c6be 0daa 0fbe
000000c0: 8e59 61be bd8c 34bf f551 8dbe 882c d4be
000000d0: 1c6e 21bf a604 afbe eab5 0cbf 369e f2be
000000e0: 18b3 07bf be5e 09bf 6537 0bbf 3d75 67be
000000f0: 8872 b7be 5f55 0bbf 1cd5 e4be 62c8 ccbe
-0.48243976 -0.47008747 -0.51244307 -0.39872384 -0.5292976 -0.4126871 -0.5257696 -0.50347894
-0.38677967 -0.423229 -0.21517667 -0.36823922 -0.70738506 -0.49267042 -0.5217562 -0.3540913
-0.50310415 -0.55076486 -0.090715446 -0.51332027 -0.56492525 -0.46861005 -0.6300199 -0.120552205
-0.63175476 -0.37720838 -0.41886383 -0.35208577 -0.9516459 -0.27380207 -0.34121355 -0.41586336
-0.29273278 -0.13058409 -0.60595787 -0.2666958 -0.21749368 -0.28804407 -0.63518894 -0.30593628
-0.40978 -0.66971546 -0.17838737 -0.30064973 -0.2498306 -0.30972672 -0.3884884 -0.14029713
-0.22006819 -0.7052725 -0.2760159 -0.41440225 -0.6305864 -0.34183234 -0.5496508 -0.4738633
-0.5300765 -0.5366019 -0.543814 -0.22603317 -0.35829568 -0.5442714 -0.4469384 -0.3999663

sequential_1_1/batch_normalization_1/batchnorm/mul f4 [96]
00000000: 9acb 3e41 07fb 4c41 d059 9a41 0073 f540
00000010: e2a0 0242 1c63 9d41 d35f f341 0f8f ba41
00000020: b37e d441 eaf4 e641 c2b2 e541 5a83 8341
00000030: c89a 6f41 2a5c c941 e803 6c41 c1df d741
00000040: 9b14 9f41 84ab f741 e8b7 9841 a4f5 ab41
00000050: a0cb 0142 3604 4641 e2cb ae41 cfa0 1042
00000060: 816a 4641 7f1e ea41 1c99 fb40 29d2 9741
00000070: 5ecb ea41 e3c8 ba41 25c3 f341 09a5 3641
00000080: 1aad 3741 f62e 0242 96b7 2241 4ca4 da41
00000090: 6655 0542 d755 9841 59ae 0a41 a246 fe40
000000a0: 605f 0642 0be2 ee41 f770 6641 5cd5 4641
000000b0: d127 8341 608c e941 9cfd cc41 ddef 0742
000000c0: 08b0 f341 9dac 8841 6a8b a441 f708 9b41
000000d0: d1e0 0f41 b745 b941 0635 8541 01a3 af41
000000e0: f9b5 9641 bac7 9441 7c60 a041 fd5f 2641
000000f0: 9538 8b41 20de f841 f868 0f42 2b48 cb41
00000100: fea7 0c42 d671 d341 ffd9 ea41 fb56 d441
00000110: 1d05 2141 e48e 4741 aca9 2741 e418 a441
00000120: f1bb ce41 bfb4 cd41 ff9d 7941 2278 1d42
00000130: c01b 5840 f5cd cf41 bd4d e040 4130 a941
00000140: c7aa 0241 9582 9d41 141d 0042 6ddb 7d41
00000150: 435c b441 f303 9a41 6bc9 4e41 7c4c 2441
00000160: b6da 4a41 6088 d541 68ab 6941 d817 c941
00000170: 3bc7 9d41 06a8 d641 6b94 dd41 d8e0 8a40
11.924707 12.811286 19.293854 7.670288 32.657112 19.673393 30.42179 23.319853
26.561865 28.869587 28.712284 16.439137 14.975288 25.170002 14.750954 26.984255
19.885061 30.958748 19.089798 21.494942 32.448853 12.376028 21.849552 36.15704
12.401002 29.26489 7.86244 18.977617 29.3493 23.34809 30.470285 11.415292
11.479761 32.54586 10.169821 27.330223 33.333397 19.041914 8.667565 7.946122
33.59314 29.860373 14.402579 12.42709 16.394442 29.193542 25.623833 33.98424
30.460953 17.084284 20.568073 19.379377 8.992387 23.15904 16.65089 21.954592
18.838854 18.597523 20.047112 10.398435 17.402628 31.10846 35.85251 25.410238
35.164055 26.430584 29.356443 26.54247 10.063748 12.472385 10.478924 20.512154
25.841768 25.713255 15.601073 39.367317 3.3766937 25.975565 7.0094895 21.148561
8.166694 19.68876 32.028397 15.866071 22.54505 19.251928 12.924174 10.268673
12.678396 26.69159 14.604347 25.136642 19.72228 26.832043 27.69747 4.3399467

sequential_1_1/batch_normalization_1/batchnorm/sub f4 [96]
00000000: 66df 97bd f638 45be a05b 20be ab83 fabe
00000010: 926a 1dbf b020 4ebe e66a ddbe 759d 58bf
00000020: 0de5 413e 0729 123e 0532 df3b a080 45bf
00000030: bedc 9bbe 54ef 6c3c 80c6 b2be 70f0 4b3e
00000040: 50eb b4bc 8078 143e 00a7 bd3c 0d87 12bf
00000050: e43d 60bf e389 1dbe fa05 7fbd 425f 26be
00000060: 160e 28c0 7ee7 233e 7e4f d2be 7865 43bd
00000070: 0a69 593e 405d 4dbe f3de 0e3f b749 39bf
00000080: e695 88be 00c5 fb3a c4f8 c3be a8d3 1fbf
00000090: 47a8 4abe 50ab b13c 88b0 a4be 03f7 54c0
000000a0: d6c7 2fbf 7814 24be 1686 03be b2af cabf
000000b0: 7511 03be 642d 49bd 300d cb3d c8de e6be
000000c0: 118d 1dbf 1680 1cbe 566b 92be 4ef2 09be
000000d0: 04b8 12bf 906b 3fbd b619 40bf 840c ad3d
000000e0: f6fd 84be 756a 9ebf da3f 083e 214c 0cbf
000000f0: 5831 643d 9d10 193f 584b e6bd 804f 04bd
00000100: 7c81 22be e0b5 dbbe 2303 2fbb c7ab c3be
00000110: 7431 8abd 1802 88be 8d38 1ec0 1c1d 833b
00000120: 982b 69bd 69ac 45bc 91cd f8be 50c9 fe3c
00000130: dfb4 3ebf 2479 12be e457 0dbf d0b8 8dbd
00000140: 01a9 aebe 1a7f 1cbf 20e1 42bf 3457 47bd
00000150: 522e 28be f453 29bf 4ad6 97bf 46c1 c8bf
00000160: 30d5 03be 3fa9 0abf 0451 0abe 1e35 3abf
00000170: c35d 16bf 26bb ac3e 4494 8bbe 269a 7cbe
-0.07415657 -0.1926001 -0.15659952 -0.4892858 -0.6149074 -0.20129657 -0.4324562 -0.8461526
0.18935032 0.14273463 0.0068113827 -0.7714939 -0.3044185 0.014461357 -0.34917068 0.19915938
-0.022084862 0.14499092 0.02315092 -0.5723732 -0.8759444 -0.15384631 -0.06226156 -0.16247275
-2.6258597 0.16006276 -0.41076273 -0.04770419 0.21231475 -0.20055103 0.55808944 -0.72378105
-0.26676863 0.0019208491 -0.3827573 -0.62432337 -0.19790755 0.021688133 -0.32165933 -3.3275764
-0.686643 -0.16023433 -0.12844118 -1.5834868 -0.12799628 -0.049115553 0.09914625 -0.45091844
-0.61543375 -0.15283236 -0.28597516 -0.13471338 -0.57312036 -0.04673344 -0.7503923 0.08449653
-0.25975007 -1.2376238 0.13305607 -0.54803663 0.05571112 0.59790975 -0.112448394 -0.03230238
-0.15869707 -0.42912197 -0.002670475 -0.38216993 -0.06747714 -0.26564097 -2.4722016 0.004001273
-0.05692634 -0.012065032 -0.48594335 0.031101853 -0.7449474 -0.14304024 -0.55212235 -0.06920016
-0.34113315 -0.6113144 -0.76124763 -0.048667148 -0.1642392 -0.6614373 -1.1862271 -1.5683982
-0.12874293 -0.541645 -0.13507468 -0.727373 -0.5873682 0.33736533 -0.27261555 -0.24668178

sequential_1_1/conv2d_1_1/convolution f4 [96, 3, 3, 1]
00000000: 2ef9 e03d 1164 b13d 84e3 1b3e 4d1b debd
00000010: ca2e 013d 3978 8f3d 5072 80be 9587 81be
00000020: 5261 edbd c4d8 423d 1b3d 193e 89a2 0a3e
00000030: 3f6c 33be 02c9 2d3e 4b64 b43d c0da cdbe
00000040: d58e 3ebe f979 38be 611e 423e 5aa6 b13d
00000050: 93e7 37be c7d0 76bd 70d8 543e 6f4c e43d
00000060: 8226 71be f93f a6bd db42 623e 483d 3abe
00000070: 7d32 3ebe cd24 dcbd b399 8739 f0b1 543d
00000080: 1e2b 0e3e 6748 983e fafc c73d 3080 4c3d
00000090: 1ce4 d9be e5f1 17be acc6 ab3d 1697 c5bb
000000a0: a015 4fbe 4e15 1bbf 29c1 4b3e e08e 3e3e
000000b0: c03b 97be 9a6e 88be 8856 43be 1078 b13d
000000c0: af23 2cbe d1ed fb3d c91b 273e 18be bebe
000000d0: 9680 f5bd c6ce 1f3e 2da7 90be d8ed 393c
000000e0: 9803 4e3e 132d a7bd 78f7 cfbe fdee 43bc
000000f0: 2a0b 3d3e 537a 52bd 8cbc 5fbe e651 c43d
00000100: e20d 53be 149d e93d 4b59 223e d1bb acbe
00000110: 7bc2 f73d eb76 9b3d 5d77 74be c050 ee3d
00000120: 266e be3d 3c5d f5bc f0de 9ebc 1c1e 9b3d
00000130: f3d9 1dbc 03f8 dc3d 46e7 34bd 87db 79bd
00000140: b301 343e 4750 abbd 96c2 383c 97f5 1fbd
00000150: b6be 35bd be17 79bd 8249 f53c 5efa f9bc
00000160: 156c 86ba 7e75 36bd 2939 c539 26bf 08bc
00000170: b000 84bd d32a 273d 5eff d7bc 0a81 d4bc
00000180: 056d afbd c950 d5bc b05d 163d 2abd ba3d
00000190: a694 89be 14d9 48be c72c bdbe b986 e7bc
000001a0: 2c10 b63d 1988 ddbd 2876 de3d 1651 843e
000001b0: 5f54 213c 86c4 1ebc 5e66 b93d c744 573d
000001c0: 67ed a7be 34bf bf3c 0b3a 783e 1c48 4fbe
000001d0: 24ed 343d d501 063d dd8c 28bd 1fe5 e83c
000001e0: 6835 fbbc 963c a4bd 32d2 9abc dead 1bbc
000001f0: 5536 bebc c37f f73c e428 93be 60fe 0b3e
00000200: 5d18 c73d acc2 3bbe 3b1f 0e3e 8b98 373e
00000210: f53e 96be 12ae 24be 3fbd 0a3d d1b0 893d
00000220: 0564 c53c 434d d43c c4c2 81bd 94d1 fabc
00000230: 5c01 8fba 49ef 9e3d 2ffb 2e3d bc9e 2abd
00000240: 9662 ad3d 25c2 903d fbe7 0e3e 3652 e03d
00000250: f532 ac3c 61fb 213d 0a96 653e e064 e83d
00000260: dfe2 15be 8908 c7be 271e 1dbe e648 01bf
00000270: c2fa 92be 1fa9 093e b9c8 16be fd4d 56bd
00000280: 6314 8a3d 1ecc 043e ae25 b9bb 3ea3 3e3e
00000290: ec05 333e 2f57 74be 08df 553d 15c0 a63d
000002a0: 21b6 9fbe 3ab1 85be 4668 a0be bad1 29bf
000002b0: 9197 9abc ce9a f7be af4a 83be 279b 163c
000002c0: d213 a0be ea51 063e 4f46 c1bd 5c11 19bf
000002d0: 48a1 823e fe80 adbc 9cc0 fcbe 4f58 f33c
000002e0: 7098 383e 7218 dcbe e2d9 93be 6e58 8ebe
000002f0: a215 47bf 8126 343e 29d0 58bd 991b 93be
00000300: 9d4a 163d 8a4e 013e 7131 10be 8490 f0bc
00000310: 82a9 3f3e a068 3c3e 8012 d3bc 9c2c a4ba
00000320: e102 f9bd 6506 3b3e e1a6 3e3e 101c 8e3e
00000330: d5a5 7bbe 8711 20be 200d e6bd d08c ca3d
00000340: 65ef 7f3e e0b8 82be 51d4 a0bd ac8b 7b3e
00000350: 2980 b4be 973d eebe 7aee eabe 21eb 37be
00000360: ec26 cfbd 3045 a73d 6db9 943c 5f6b 10bd
00000370: 9698 843e e289 7cbd 74c0 863d ff8c 253d
00000380: 4b13 a1be 022b 8ebd 4924 d2bb 4af7 9fbc
00000390: f9c4 babc b490 9b3c fd58 613c 6226 73bc
000003a0: d251 073d 0afa 0ebd d04f 83be ac28 80be
000003b0: b249 56bd c0b3 e9bb 3e29 7e3d 0ca1 403d
000003c0: aca1 263e d90d fc3d 27e4 013e 222a 313e
000003d0: 83f2 04bd cf64 68be cebe eb3b 399a 8c3d
000003e0: 9462 51be 2911 653e 2962 fc3d e107 3ebe
000003f0: 948b 3dbd d8ce febc 3008 febc e0af 88bb
0.10985027 0.08661664 0.15223509 -0.10845051 0.031538762 0.070053525 -0.25087214 -0.25298753
-0.11590828 0.047570005 0.14964716 0.13538565 -0.17521761 0.1697121 0.08808192 -0.40205956
-0.18609174 -0.18015279 0.18956901 0.08674307 -0.17959432 -0.0602577 0.2078569 0.11147391
-0.23549846 -0.081176706 0.22095816 -0.1818744 -0.18573947 -0.10749207 0.0002586372 0.051927507
0.13883635 0.2974274 0.09765048 0.049926937 -0.42556846 -0.14838369 0.08387503 -0.0060299737
-0.20223093 -0.60579383 0.19897904 0.1860919 -0.29537773 -0.26646882 -0.19075978 0.08665478
-0.16810487 0.12301219 0.16319193 -0.37254405 -0.119874164 0.15606222 -0.28252545 0.01134821
0.20118558 -0.08162894 -0.4061849 -0.011958835 0.1846129 -0.05138619 -0.21849269 0.095859334
-0.20610765 0.114069134 0.15854375 -0.33737043 0.12097641 0.07591041 -0.23873658 0.116364956
0.09298353 -0.029951684 -0.019393414 0.07574102 -0.009634483 0.10789492 -0.044165872 -0.061000373
0.17578773 -0.08364921 0.011276862 -0.039052572 -0.04437133 -0.060813658 0.029942278 -0.030514892
-0.00102556 -0.044545643 0.00037617356 -0.008346355 -0.06445444 0.040812325 -0.026366886 -0.025940437
-0.08565716 -0.026039498 0.03671044 0.091181114 -0.26871222 -0.19614059 -0.36948225 -0.028262483
0.08889803 -0.10816974 0.1086238 0.25843114 0.009846776 -0.0096904095 0.09052728 0.052555826
-0.3279831 0.023406602 0.24240892 -0.20242351 0.044171467 0.03271659 -0.041149963 0.028429566
-0.030665115 -0.08019368 -0.018899057 -0.009501902 -0.023219267 0.030212289 -0.28742135 0.13671255
0.09721444 -0.1833598 0.13879101 0.17929284 -0.29344907 -0.16082028 0.033871885 0.06723178
0.024095545 0.025915748 -0.06335977 -0.030617513 -0.0010910439 0.07760484 0.042720016 -0.041655287
0.084660694 0.0706828 0.13955681 0.109531805 0.021020392 0.039546374 0.22420517 0.113473654
-0.14637326 -0.388737 -0.15343533 -0.5050186 -0.28706938 0.13443421 -0.14725007 -0.05232047
0.0674217 0.1296849 -0.0056502437 0.1861696 0.17482728 -0.23861383 0.052214652 0.081421055
-0.3119364 -0.26111776 -0.31329554 -0.6633564 -0.0188711 -0.48360294 -0.25642917 0.009192265
-0.31265122 0.13117185 -0.094372384 -0.59792113 0.25513673 -0.021179672 -0.493657 0.029705195
0.180269 -0.429874 -0.2887717 -0.27801841 -0.77767384 0.17592813 -0.052932892 -0.28731993
0.03669225 0.12627617 -0.1408136 -0.029365785 0.18717006 0.18399286 -0.025765657 -0.0012525502
-0.12158752 0.18264158 0.18618347 0.27755785 -0.24574979 -0.15631686 -0.11232972 0.09890139
0.24993666 -0.25531673 -0.07852996 0.24565 -0.35254028 -0.46531364 -0.45885068 -0.17960788
-0.10114846 0.08167493 0.018154824 -0.035258647 0.25897664 -0.061654933 0.06579676 0.040417667
-0.31460032 -0.06941797 -0.006413017 -0.019527096 -0.022799002 0.018989898 0.013754127 -0.014840694
0.033037014 -0.034906425 -0.2564683 -0.2503103 -0.052316375 -0.0071320236 0.06205105 0.047028586
0.1627261 0.12307329 0.1268469 0.17301229 -0.03245784 -0.22694705 0.0071943766 0.06865353
-0.20447761 0.22369827 0.1232341 -0.18557693 -0.04627569 -0.03110449 -0.031009763 -0.0041713566

sequential_1_1/conv2d_1_1/Relu;sequential_1_1/conv2d_1_1/BiasAdd;sequential_1_1/conv2d_1_1/convolution; f4 [96]
00000000: b9c3 5abb 4ccf e0bb 71b7 3ebe 768e 2a3d
00000010: ff23 333d 33e2 73bc 9044 913c a596 c83c
00000020: 27e1 bbbe 6326 9ebd 1f35 5bbd 5f33 853d
00000030: c751 3f3c 0202 85bd 97f3 d8bb a6f5 5bbe
00000040: 2ca6 c8be 708c 8dbc f2d7 0bbb 10b5 e83d
00000050: 3058 303d 4bd3 ddbd 5df2 acbd a399 7e3c
00000060: cf4e 5f3e 7e89 77bd 49de e33c 14a2 eabd
00000070: e7f4 61bd 65e1 29be ed99 46bd 5ba2 513d
00000080: 38c1 0b3c bc3c b7ba 56f2 873c 7dc0 513d
00000090: 409e 6cbd b540 3fbe 16fe c53b 2415 d73e
000000a0: 6289 2d3d e9f1 e4ba 33da e8bd de70 e83d
000000b0: 80c2 2fbe 2de5 4e3c 68fe 02bc ff12 9e3c
000000c0: 68da 3abd bddf 12bb 959a 673b 9b6b d8bb
000000d0: dd70 3e3d fd12 41be 94d7 ea3c c364 7cbe
000000e0: f343 c93c ab1d 053d 9613 15be eb06 163d
000000f0: 3e45 8fbd d762 85bc ccf7 1cbc 5ebd e3bd
00000100: b4db 953b 74eb 113d 3a29 aebd 56cf 3b3d
00000110: 742d 87bc c840 d9ba a608 773e 83c6 17bd
00000120: d996 983c fd7a 06bd 2074 993c 8cb9 7ebe
00000130: 65fd 253e a7ea 15be 31c2 763d f031 99be
00000140: cf35 343c 6d9c 963c bf77 ee3c 9d8f 55bd
00000150: 1056 213c 26e1 403c 5765 8a3d 9272 093e
00000160: 8545 18bd ba3f f73c 7a3f a2bc 51de 1e3d
00000170: 33c9 afbc 2c07 70bd ef70 06bc 5059 f53c
-0.003338082 -0.006860649 -0.18624665 0.041639768 0.0437355 -0.014885473 0.017732888 0.024485895
-0.36695215 -0.077221654 -0.053517457 0.06503939 0.011677212 -0.064945236 -0.006620835 -0.21480426
-0.3918928 -0.01727888 -0.002133843 0.1136266 0.043052852 -0.108313166 -0.084446646 0.01553956
0.21807407 -0.060433857 0.027815955 -0.11456695 -0.055165198 -0.16589887 -0.04848664 0.051180225
0.008529954 -0.0013979892 0.016595047 0.05120896 -0.057768106 -0.18677028 0.0060422523 0.42008317
0.042367347 -0.0017467114 -0.11369743 0.11349653 -0.1716404 0.012627882 -0.0079952255 0.019296167
-0.045618445 -0.002241119 0.003533994 -0.0066046244 0.046494354 -0.188549 0.028667249 -0.24647813
0.024568534 0.032498997 -0.14558253 0.03662769 -0.06995629 -0.016282482 -0.009580564 -0.11120103
0.00457331 0.035624936 -0.08503957 0.045852028 -0.016501166 -0.0016575092 0.24124393 -0.03705455
0.018626617 -0.032832135 0.01873213 -0.24875468 0.16209944 -0.14640294 0.06024379 -0.29920912
0.010999157 0.018385137 0.029109834 -0.052138913 0.009847179 0.01177243 0.0675761 0.13422611
-0.037175674 0.030181754 -0.019805659 0.038786236 -0.021458244 -0.05860059 -0.008205636 0.029949814
