Model/final_mnist_adv_trained.tflite (tflite, 643788 bytes, 12 tensors)

arith.constant f4 [64]
000000 a9 48 34 be b8 d4 b7 be 56 aa 39 be 06 52 20 3d
       -0.17605843 -0.3590448 -0.18131384 0.039140724
000010 49 e0 e3 be 37 18 ac bd 4d 46 ca be 12 bb b7 be
       -0.44507053 -0.08403056 -0.3950676 -0.3588491
000020 db fb d2 be 37 a3 47 bf d4 ec 4b bd ef 4f 8a be
       -0.41207775 -0.7798342 -0.049786404 -0.2701411
000030 73 21 aa 3e 94 e1 25 be 61 6f 13 be e3 b5 c6 be
       0.33228645 -0.16199332 -0.14397956 -0.38810644
000040 b1 27 22 bf ca 0f a4 be 0e a5 fa be 5a 40 5c 3d
       -0.63341814 -0.32043296 -0.48954052 0.053772308
000050 a8 49 d6 be e6 9c b7 be f0 a3 02 bf d5 df d0 be
       -0.4185307 -0.35861892 -0.510314 -0.4079577
000060 8e 13 ce be ea 99 ab be b7 a1 c6 bc 23 d0 58 be
       -0.40249294 -0.33515865 -0.024247034 -0.21173148
000070 31 20 d5 3e de 69 83 be b1 29 db be b3 ea 09 be
       0.41626123 -0.25666708 -0.42805246 -0.13468437
000080 0c 6a 8c be e7 2e 21 bf 7a 07 92 be ec 5d 83 be
       -0.27424657 -0.6296219 -0.2852133 -0.25657594
000090 29 fc eb be db ca 82 be 99 9d f3 be 3e 86 88 be
       -0.4609082 -0.2554539 -0.47581175 -0.2666492
0000a0 37 7b e4 be 5c cf a7 3e 1b 2a a8 be e7 e2 95 be
       -0.44625255 0.3277539 -0.32844624 -0.29274675
0000b0 8b 85 ef bd 03 1f c9 bd ea 36 a3 be a1 c2 dd 3c
       -0.11695393 -0.09820368 -0.31877834 0.027070345
0000c0 46 af 1a be a0 bf 6b bd d4 bb 9b be 49 01 38 be
       -0.15105924 -0.057555795 -0.3041674 -0.1796924
0000d0 0b e5 6c be ce a1 46 be 27 2d 9f be 91 24 1b bf
       -0.23134248 -0.19397661 -0.31089136 -0.6060267
0000e0 76 ac 18 bf 41 46 e3 be c1 f7 33 be 44 f7 13 bf
       -0.59638155 -0.44389537 -0.1757498 -0.5779917
0000f0 b0 be 05 bf 06 0d 2e bf 33 54 ae be e1 84 cb be
       -0.5224409 -0.6798862 -0.34048614 -0.39749816

arith.constant1 f4 [10, 64]
000000 82 14 84 bb 1b eb 1e bc b2 13 7e bb 73 ad e4 bb
       -0.004030765 -0.009699608 -0.0038769064 -0.0069786846
000010 db 44 56 bc be bc c5 3c 6b 3e 16 bc cd df 91 bc
       -0.01307794 0.02413785 -0.009170155 -0.017806912
000020 25 be 2d bc 42 8f 0b bb 07 d4 dc 3c 2c 4f 54 3c
       -0.010604416 -0.0021295105 0.026956571 0.012958329
000030 05 1c 69 bc a0 90 49 bc 27 76 63 3c 5f c9 6d bc
       -0.014227872 -0.012302548 0.01388315 -0.014513343
000040 a5 7e 20 bc 4e 37 70 bc 50 38 98 bc f8 ee 5d bc
       -0.009795819 -0.014661623 -0.01858154 -0.013545744
000050 ce fc 03 3c 83 65 80 bc fa c7 52 3c c9 da 07 bc
       0.008055879 -0.015673405 0.012865061 -0.008291909
000060 ff 73 bd 3c cd 7b 91 bc cb 91 e1 bb 39 54 5f bc
       0.0231266 -0.017759228 -0.006883835 -0.01363092
000070 f2 83 64 3c 05 b8 65 3c c9 e6 c1 bc a3 7d 2d 3c
       0.013947474 0.014020924 -0.023669617 0.010589036
000080 25 fb d6 bb 65 13 ba bc de b1 56 bc 6b 50 d3 b9
       -0.0065607005 -0.022714326 -0.01310393 -0.00040304972
000090 90 ae ad bc 4c fe 97 3c bc a0 0e bc 60 52 ab 3b
       -0.021201402 0.018553875 -0.008705314 0.0052283257
0000a0 c3 5e 16 bc 79 06 88 bc 26 e8 81 3c 99 9e d1 bb
       -0.009177866 -0.016604649 0.015857767 -0.00639708
0000b0 58 90 e0 3b 24 a8 6a bc ae a6 6d 3c 0d db 2d 3c
       0.0068531446 -0.014322314 0.014505072 0.010611308
0000c0 45 af 88 bc ba 24 0c bc 8d 1d 80 bc 65 37 f4 bb
       -0.016685138 -0.008553678 -0.01563909 -0.0074528926
0000d0 82 77 83 3c ce 57 51 bc 44 9a 1c bc ef 9c 18 bd
       0.016048197 -0.012777282 -0.009558264 -0.03725904
0000e0 b6 71 7f 3c d6 00 02 3d 4c 6f 18 3c 21 2c 58 bc
       0.015591076 0.03173908 0.009303879 -0.013194115
0000f0 21 ee 9f bc 99 24 35 bb c0 ba 2c 3c 94 06 65 3c
       -0.019522728 -0.0027640222 0.010542572 0.013978619
000100 f0 f9 66 3c bc 69 81 3c 67 89 20 bc 18 2b 97 3c
       0.014097676 0.015797488 -0.009798384 0.018453166
000110 88 c6 ce 3b 3c 2f a7 3c fb 27 8f 3c d2 2c 4a bc
       0.006310288 0.020408265 0.017475119 -0.012339788
000120 d9 4d 3c bc ce bb ac bc fe d9 d9 3c c4 94 13 3c
       -0.01149317 -0.021085646 0.026593205 0.009007636
000130 e2 81 91 3b 49 62 18 3c 62 84 37 3c 98 e2 8b 3d
       0.004440532 0.009300777 0.011200996 0.06830329
000140 85 05 2a 3d 2e 0d fc bb d4 db 44 bc da f3 0f bb
       0.04150917 -0.007692001 -0.012015302 -0.0021965415
000150 74 7f 3a bc f7 89 d3 bc ff f2 40 bb 3e 47 03 bc
       -0.011382926 -0.025822623 -0.0029441712 -0.008012591
000160 09 b8 aa bb 1b 1c ab bb 6c dc 0c bc b7 59 82 3c
       -0.005209927 -0.0052218563 -0.008597475 0.01591192
000170 47 b2 1c bc ee d3 be bc 53 5f df 3c 98 37 2d bc
       -0.009563989 -0.023294415 0.027267134 -0.010572337
000180 f5 db c3 bc 30 7b a0 3c 78 41 69 3c ae 36 14 3c
       -0.023908595 0.01958999 0.0142368 0.00904624
000190 e1 26 f3 3c 2c a5 88 3c ec 4b e9 bb 00 5e 18 bc
       0.029681625 0.016680323 -0.0071196463 -0.009299755
0001a0 ae 75 46 3c e5 e2 38 3c 0c f3 f3 bb 55 7b 60 bc
       0.012113018 0.011284565 -0.007444745 -0.01370128
0001b0 7c 52 8f bc 56 86 1f 3c 24 14 ef 3b 35 e7 2b 3c
       -0.017495386 0.009736618 0.007296102 0.010492136
0001c0 27 71 16 bb cb 5e f6 bb 29 69 c8 3c cc 4e 23 bc
       -0.0022955628 -0.0075186244 0.024464207 -0.009967517
0001d0 a8 c5 28 bc 19 25 6c bc a0 70 9d bb 43 44 3d 3c
       -0.010301031 -0.014413142 -0.0048046857 0.011551919
0001e0 49 a7 cf ba bc 6b f6 bb 91 8e 90 bc 22 0a 65 bc
       -0.0015842702 -0.007520167 -0.017646106 -0.013979467
0001f0 fe 3f 7e 3c e3 90 95 3c ec db 30 bc 7c fa 3d bc
       0.015518187 0.018257564 -0.010794621 -0.011595365
000200 14 3f 91 bc dd eb 6e 3c d3 87 bb bb f7 88 67 bb
       -0.017730273 0.014582601 -0.0057229786 -0.003532944
000210 c2 27 4e 3c 5c 65 7f bc e1 4a 56 bc ce 31 78 bc
       0.012582721 -0.015588131 -0.013079376 -0.015148593
000220 2b be 3a bc 18 41 48 3b bd 4f 8a bc de bf 1f 3c
       -0.011397879 0.0030556377 -0.016883725 0.009750335
000230 02 5c 98 3c 57 bd 22 bc e7 c8 60 bc 30 f0 d1 bb
       0.01859856 -0.009932837 -0.013719774 -0.0064068064
000240 6d 67 f6 bb 7a 7a ff 3b b3 d9 d2 3b 2a 76 74 bc
       -0.0075196535 0.0077965828 0.006434643 -0.014920751
000250 10 77 f4 3b d4 3b 7e bc c5 81 87 bc 5a e8 0f bc
       0.0074604824 -0.015517194 -0.016541371 -0.008783424
000260 14 aa 45 bb 49 cd 95 bc 79 9a 1a bc 27 16 52 bc
       -0.003016119 -0.018286364 -0.009436243 -0.012822664
000270 2f 8b 62 3c ed f7 a3 bc c4 6c 0f 3c 54 29 4e 3c
       0.013827129 -0.020015681 0.008753959 0.012583096
000280 12 cf 0a 3c 85 86 b4 bc 32 21 90 bc 4f 6f 1e 3c
       0.008472221 -0.0220368 -0.017593954 0.009670093
000290 d6 d3 16 bc c5 88 90 3c 4f 85 df bb 52 bf 05 3c
       -0.009205779 0.017643342 -0.0068213115 0.00816329
0002a0 37 17 46 3c ba ff 4a 3c b2 29 7a bc 2d a5 c2 bb
       0.012090496 0.0123900715 -0.01526873 -0.0059401006
0002b0 d9 ae 47 3c 38 b6 f1 3b af 53 85 bc 78 e5 9c bb
       0.012187683 0.0073764585 -0.016275255 -0.004788097
0002c0 22 75 c8 3b 14 c8 11 3c 17 a3 a0 bc 7c e4 22 3c
       0.006117479 0.0088978 -0.019609017 0.00994217
0002d0 cc 3d 2e bc ec d4 33 bc 83 d0 e5 3b 84 ed 83 3c
       -0.010634851 -0.0109760575 0.007013382 0.016104467
0002e0 21 56 51 3c 8f 23 07 bc 4d 12 aa bc c9 db 85 bc
       0.012776882 -0.008248224 -0.02076068 -0.016340153
0002f0 f1 34 85 bb ee 7d 50 3c f9 e6 59 3c 2a 43 93 3b
       -0.004065149 0.0127253365 0.013299697 0.0044940906
000300 46 37 ff bb 6d 2a 6e 3c 1d c5 63 3c 10 93 5a 3c
       -0.0077885715 0.014536482 0.013901976 0.0133407265
000310 8b d6 4c 3c cd 6a 5c bc 5b 00 68 3c 25 b3 d7 3b
       0.012502323 -0.013453198 0.014160241 0.006582635
000320 cf 9c 1d bc b2 4c 82 bc 30 fb b2 bc c0 c0 4c bc
       -0.009619906 -0.015905712 -0.021848291 -0.012497127
000330 e2 50 14 bc 0d 27 0d 3c 72 54 37 bc 57 2a ac 3b
       -0.009052487 0.008615267 -0.011189567 0.0052540707
000340 53 c2 ae bb 2c 84 58 3c 6f ad c8 3b 1f 9a 45 bc
       -0.005333224 0.013215106 0.0061241905 -0.012060671
000350 90 a3 35 3c b2 79 79 3c 6f 9c ae bb 8e 28 3c 3c
       0.01108636 0.015226768 -0.005328707 0.011484278
000360 ba 9a a9 3c 74 22 4a 3c 17 ba 15 bc ed 31 4c bc
       0.020703662 0.012337316 -0.009138606 -0.012463075
000370 ac 6c 0d bc d7 17 80 bc c4 67 76 bc be 8e 2c 3c
       -0.008631866 -0.015636368 -0.015039388 0.010532079
000380 f1 3a c3 3b d7 42 0c bc 0e 80 97 bc 3e ab 9a bc
       0.005957954 -0.008560858 -0.018493678 -0.018880483
000390 a4 9e 20 bc a3 04 57 bc ac e7 16 bc 19 52 df 3b
       -0.009803448 -0.013123664 -0.009210508 0.0068152067
0003a0 e9 b8 2b 3c 74 5f 44 3c 25 ed 91 bc 6a da 40 3c
       0.010481098 0.011985648 -0.017813275 0.011770824
0003b0 a1 04 bc bc 10 fc 1e 3c 14 bd db 3b 06 be 37 3c
       -0.022951426 0.009703651 0.0067058895 0.011214739
0003c0 13 bb 44 3c da 5f 10 3c 24 dd 09 bc ca 8b 3d 3c
       0.012007493 0.008811915 -0.00841454 0.011568973
0003d0 68 ee 4b 3c c3 ff 08 3c c2 93 04 3c ec 9f 4c bc
       0.012446977 0.00836176 0.008091869 -0.0124893
0003e0 ae 92 88 3c 07 85 7b bb ab 54 17 3c 1f 81 d3 3b
       0.016671505 -0.003837885 0.009236495 0.0064546014
0003f0 b5 ce 9c bc 53 b0 d6 ba b7 3b 14 bc 78 fd 49 bc
       -0.019141534 -0.0016379453 -0.00904744 -0.012328498

arith.constant2 f4 [10]
000000 69 3d 24 3f 57 00 8f 3f 78 04 89 3f c2 65 38 c0
       0.64156204 1.1171979 1.0704489 -2.8812108
000010 91 af 6b 40 97 fc 61 3f da 23 cb be e2 56 a1 3f
       3.6825907 0.88276047 -0.3967579 1.260464
000020 a3 24 12 40 82 56 c2 3f
       2.2834861 1.518265

arith.constant3 f4 [64, 3, 3, 96]
000000 dd fd bc 3d 5c 15 a4 bd a2 31 30 be 43 a5 0f be
       0.09228108 -0.080118865 -0.17206433 -0.14027886
000010 c4 32 eb 3d 47 db be 3d 0c 50 6e 3e 87 63 80 3e
       0.11484292 0.093191676 0.23272723 0.25075933
000020 f8 10 ec bd 4b cc 2b bd c9 01 97 3d 8e c1 31 be
       -0.11526674 -0.041942876 0.07373387 -0.17358992
000030 77 3c 85 3c cf 2f ca 3d 2c cb 79 3e e2 67 35 be
       0.016264183 0.098724 0.2439391 -0.1771541
000040 e7 f1 0b be 40 aa 88 be 2c 81 0f 3e 8a fd d0 bd
       -0.13666497 -0.2669239 0.14014119 -0.10204609
000050 61 a9 07 3e 01 7d b7 bd 47 ce 43 bd 34 b5 c8 3c
       0.13248207 -0.089593895 -0.047804143 0.024500467
000060 ca e1 23 bb ac 59 12 3d a7 18 ff bc 34 da 38 3e
       -0.0025006407 0.03573005 -0.031139685 0.18051988
000070 1b d9 a0 be fb b6 71 be dc 17 ea bc 5e 0d 5e 3d
       -0.31415638 -0.23604958 -0.02857583 0.054211967
000080 31 70 7e bd b8 a5 05 be 22 b5 75 bd a2 25 1b bd
       -0.062118713 -0.13051498 -0.059987195 -0.037877686
000090 38 e3 5e 3e b5 18 8d be 2f 2c c7 3d fe 83 09 3e
       0.21766365 -0.27557912 0.09725224 0.13429257
0000a0 9c a4 c0 3e c5 7d 82 be 81 ae 9d 3d cc 79 cf 3c
       0.37625587 -0.2548658 0.076992996 0.025326632
0000b0 6b 3c 8d 3d 4d 74 bf bb 1b b0 d5 be 15 05 3a bd
       0.068962894 -0.0058427216 -0.4173592 -0.045415003
0000c0 6b 0c dc bc df 2d a7 3e 73 4f 97 3e a5 0a bd bd
       -0.02686139 0.32652184 0.29552802 -0.09230546
0000d0 c3 db b1 bb 50 ed 74 be 81 29 3d 3e 94 02 21 be
       -0.005427809 -0.23918653 0.18472864 -0.1572364
0000e0 d9 1f 7e 3e f8 2c bd bd 45 aa d8 be 1d bf d2 3c
       0.24816836 -0.09237093 -0.42317405 0.025725896
0000f0 17 e4 4c be 0b c5 20 be 08 06 bf 3e 85 c2 3b be
       -0.20008884 -0.15700166 0.3730929 -0.18335922
000100 91 60 80 3d 54 41 d3 3d 6a e3 28 be e4 ae 78 3d
       0.062684186 0.10315195 -0.16493002 0.060713664
000110 af ac a5 3e 1b 37 c3 be eb 58 5d 3e 37 fc 3c 3d
       0.3235831 -0.3812798 0.21615951 0.04613897
000120 a3 a2 4a be 49 d0 f6 3d dd de bb bc 49 48 b1 bd
       -0.19788603 0.12051446 -0.022933418 -0.086563654
000130 38 87 91 be a7 e6 13 3d c0 a7 8e 3e 5c f7 05 bd
       -0.28423476 0.03610864 0.27862358 -0.032706603
000140 d7 15 84 3d 02 f1 c4 3d f9 06 9c bd 7d 08 57 3e
       0.06449478 0.09616281 -0.076185174 0.20999332
000150 38 8e 49 3e f3 f4 37 3e ed 8a 8b 3d 23 3c c3 bb
       0.19683158 0.17964534 0.06813607 -0.0059580966
000160 ac c7 12 3e 19 79 db 3e 43 a6 e7 3b 18 fe 9e 3d
       0.14333981 0.42865828 0.0070693805 0.07763308
000170 b7 4a 1f 3d 97 c3 57 3c c8 8f f6 3d b8 ec 88 3e
       0.038889613 0.013169191 0.12039143 0.26743102
000180 a2 c1 18 3a 55 ec af 3d ba 87 20 bd 27 07 c4 be
       0.00058271934 0.08589999 -0.03919194 -0.38286707
000190 a6 ba 87 bd 41 fb 15 3e 6c 4a 99 3d ef 3b b5 3e
       -0.06627397 0.14646627 0.07484898 0.35397288
0001a0 8a 04 cc bd 49 e0 d7 bd c1 a0 3c 3d 3d b7 71 be
       -0.09961803 -0.10540826 0.046051744 -0.23605056
0001b0 9b e1 6d 3e 1e ae 13 3e c9 b2 b8 3e 7d 35 e0 bd
       0.23230593 0.14421889 0.36073902 -0.10947702
0001c0 df 8f 19 bd df fd 3a bf eb cf 56 3d 51 93 09 be
       -0.03749072 -0.73043627 0.05244438 -0.13435103
0001d0 05 97 da 3d c7 31 d4 3d 7e 9d 48 be b8 a1 d4 3c
       0.10673336 0.10361057 -0.19591329 0.02595602
0001e0 a8 8a bd 3e 80 0c 46 bd 73 af d7 be de 23 9a 3e
       0.3701985 -0.048351765 -0.42126045 0.3010549
0001f0 6b b4 b4 bd 3d 58 28 3e 1f af 88 3d e3 42 b6 bc
       -0.088234745 0.1643991 0.06674027 -0.022248691
000200 14 42 8e 3d 34 44 75 be 22 07 bf be 34 c5 b0 3d
       0.06946197 -0.23951799 -0.3731013 0.086313635
000210 6c 8e 98 3e 14 e7 08 be c0 22 e9 3d f2 0e d6 bd
       0.2979616 -0.133694 0.11383581 -0.10452069
000220 d1 93 b5 3e f2 e0 91 bd b1 00 6a 3e e4 f0 55 3d
       0.35464337 -0.07122983 0.22851826 0.052231684
000230 76 16 16 be ab a0 a4 3c b8 a5 0a bf 03 23 d4 be
       -0.14657006 0.020096144 -0.54159117 -0.41432962
000240 1f 85 f6 3c 4d b5 7a 3e 16 cb 95 3e 47 61 4f bc
       0.030092774 0.24483223 0.29256505 -0.01265747
000250 b9 2e 97 be b0 99 9c 3a 9b 46 4f be b0 a3 68 be
       -0.29527834 0.0011947658 -0.20241778 -0.22718692
000260 aa 76 48 3e e1 83 8e 3d dd 08 d2 bd ea a3 66 bd
       0.19576517 0.06958748 -0.10255597 -0.056308664
000270 96 5e 7e be 60 9d 71 3b e6 66 ab 3d 99 49 b7 3d
       -0.24840769 0.0036867484 0.08369236 0.089495845
000280 5f c9 b6 bc e7 9d 77 3e 61 e8 39 3e 52 24 05 3e
       -0.022312818 0.24181329 0.18155052 0.13002136
000290 3f 91 d1 3d 01 77 6a be aa 8d b4 bd 06 02 1b 3e
       0.102327816 -0.22896959 -0.08816083 0.1513749
0002a0 5b 64 af be 14 3c 0c be a2 ab 3a 3d 5e e4 9b be
       -0.34256253 -0.13694793 0.045573838 -0.30447668
0002b0 87 17 14 3b 89 6b ee be 1e 63 91 3e bb 2e 07 3e
       0.0022597031 -0.46566418 0.28395933 0.1320142
0002c0 d5 78 88 3d fb ef 31 bb f8 f9 3b be 90 25 66 3d
       0.06663672 -0.0027151096 -0.18357074 0.056188166
0002d0 ef 78 5a 3e 67 76 af 3e 14 6c d4 3d 7e b0 5d be
       0.21335195 0.3427002 0.10372177 -0.21649358
0002e0 59 c1 28 3e bc fc 40 3d 77 25 54 bc 3c f1 57 be
       0.16480006 0.047116026 -0.012948385 -0.21088117
0002f0 43 34 96 3c 3a f7 f6 bb dd 0e 88 3e 7e bf b0 3d
       0.018335467 -0.007536796 0.2657384 0.08630274
000300 22 62 08 bf f6 99 35 bf 30 72 47 be ce e7 de be
       -0.5327474 -0.7093805 -0.19477153 -0.43536228
000310 85 01 d1 3d 55 4a 15 3d d7 e1 46 be c6 d6 14 3e
       0.10205368 0.03644784 -0.19422089 0.14535055
000320 4b e0 5a be af 98 2d be 71 ab 22 bd 75 07 88 bd
       -0.21374623 -0.16952775 -0.03971428 -0.06642047
000330 49 9d c9 bd 1d ec 65 bb 8a 71 08 be 58 c5 98 bd
       -0.09844453 -0.0035083361 -0.13324562 -0.07459515
000340 b3 c9 fb bd f0 fe ce be 71 f9 16 bf 9e f4 0f be
       -0.122943304 -0.40428877 -0.5897437 -0.14058158
000350 00 38 6d be 48 c8 b8 bd 89 92 e0 be d8 56 73 be
       -0.23165894 -0.090225756 -0.43861797 -0.23763597
000360 c0 33 f8 bd 03 17 5d be e9 4d ff be 29 81 6e 3e
       -0.121192455 -0.2159081 -0.49864128 0.23291458
000370 27 b9 3c be 8d 20 9d 3e 53 b2 55 bd 2f 6d 4f be
       -0.18430005 0.30688897 -0.052172016 -0.20256494
000380 d5 1f 60 be f8 a0 ef bd d4 40 95 3d b5 c6 0d bf
       -0.21887143 -0.11700624 0.072877556 -0.5538133
000390 7f 5b 7c 3e f2 86 59 be fd 9f 90 bd 43 73 f2 be
       0.24644278 -0.21242884 -0.07061765 -0.47353563
0003a0 ec e5 37 3e 24 2e 11 3e ef 83 1a 3e 25 74 19 be
       0.17958802 0.14177758 0.15089391 -0.14985712
0003b0 ec 58 f6 be b5 ab a3 3d a7 a3 d9 be bc 05 b8 be
       -0.48114717 0.07991735 -0.4250767 -0.35941875
0003c0 af 46 93 3d 76 5c 59 3e 89 1c 87 bd a9 0a 5e be
       0.07191216 0.21226677 -0.065972395 -0.21683754
0003d0 08 33 90 be ac 6d 16 bd 30 94 3b bf de 86 28 bf
       -0.28163934 -0.036725685 -0.7327299 -0.6583079
0003e0 9c 76 26 bf dd c7 77 be 9d e0 2c be 7b 0e 48 3d
       -0.65024734 -0.24197336 -0.16882558 0.048841935
0003f0 88 9d 08 bf 05 21 6c be 9a 95 d7 bc 7b d5 87 be
       -0.53365374 -0.23059471 -0.026316453 -0.2653006

arith.constant4 f4 [64, 1600]
000000 af 25 81 be 0c dc 54 be 5e 74 02 3e 2b 09 6a bb
       -0.25224063 -0.20787066 0.12739703 -0.003571103
000010 3e e2 dd bb 06 e0 4c bd 59 62 51 bc e5 c3 01 3c
       -0.006771355 -0.050018333 -0.012779796 0.00792024
000020 f9 dd b1 3e 7f 8c 83 3e 70 c9 a5 bd 95 4e af 3e
       0.34739664 0.25693128 -0.08095062 0.3423964
000030 64 42 33 be 42 6a f4 bd c6 75 63 bd df 82 44 be
       -0.17505795 -0.119343296 -0.05553224 -0.19190548
000040 3b f0 67 bc 67 86 92 bd d9 6c e5 3d 15 f1 84 be
       -0.0141563965 -0.071545415 0.11202402 -0.2596518
000050 85 7d fc 3d 43 0a 9c bd d7 92 2b be 6e 61 5a be
       0.123286285 -0.07619145 -0.16755234 -0.21326229
000060 38 af 4a 3e e6 0b 87 3d b6 12 a0 3e 20 65 68 be
       0.19793403 0.06594066 0.31264275 -0.22694826
000070 14 f7 e3 bb 09 96 5b 3d e8 7d bf 3e 5d 60 65 3e
       -0.0069569442 0.05360988 0.37400746 0.22400041
000080 c8 d5 1e bd 32 63 0c be 5f fc 0b 3e a2 03 bd 3e
       -0.038778096 -0.13709715 0.1367049 0.36916834
000090 d8 7b c9 be 83 3d c1 3e b2 7f bc bc 8e d7 2a 3e
       -0.39352298 0.37742242 -0.023010109 0.1668379
0000a0 4c 8d 94 bd 81 d3 a0 bd 13 cb 67 be bd f4 5d bd
       -0.07253513 -0.07852841 -0.2263606 -0.05418848
0000b0 cc e9 8e be 3a 56 1e be a3 66 2a be a7 e9 03 3e
       -0.27912748 -0.1546258 -0.16640715 0.128821
0000c0 74 38 80 be 0d 70 57 be af e9 2b 3e 92 52 93 bc
       -0.2504307 -0.21038838 0.16788362 -0.017983709
0000d0 45 94 b2 bd 2b 15 cd be 00 23 af 3e ec f7 53 bd
       -0.087196864 -0.40055212 0.3420639 -0.05175011
0000e0 c7 2a 2e be 54 ec 34 3e 49 9b 8b 3e 43 23 35 3e
       -0.17008506 0.17668277 0.2726691 0.17689233
0000f0 14 cb 12 3e 4d fe 8e bc a1 7e 9b bd f5 22 5f bd
       0.1433528 -0.017455244 -0.07592512 -0.054476697
000100 5c 4c c4 bd 31 d7 7a be 1e 90 26 3e 44 8f 25 be
       -0.09584877 -0.24496152 0.16265914 -0.16167933
000110 80 30 25 3e c4 12 89 be 0b 53 44 3d 37 6f 44 3e
       0.16131783 -0.2677213 0.04793076 0.1918305
000120 06 d9 97 3d 7b a5 e3 bd 8e 6e 17 3f 35 2c 17 be
       0.07414441 -0.11115547 0.5915307 -0.14762957
000130 f1 9a b3 bd 1a 5a 2f bf b2 df 14 3d a4 87 23 be
       -0.08769787 -0.6849686 0.036346145 -0.15969712
000140 a2 54 63 3d eb 50 0c bf 3c 25 9e 3d 9b c2 9e be
       0.055500634 -0.5481097 0.07721946 -0.31007847
000150 0e d2 83 3d e2 ad 02 be 56 ec b6 3d ae 1b be be
       0.06436549 -0.12761644 0.08931796 -0.37130493
000160 8b 37 bb bc f6 20 bc 3e d4 b7 4f 3e cd a6 2e be
       -0.022853633 0.36743897 0.20284969 -0.17055817
000170 6c 7b 0d bf d0 0b a1 3e d3 6d ec bb 70 f1 b4 3e
       -0.5526645 0.31454325 -0.0072152405 0.35340452
000180 0f b5 8f 3e 95 ce f5 bd 65 43 fc bd 8e ce f2 3e
       0.28067824 -0.12002293 -0.12317542 0.47423214
000190 59 76 e6 be 90 56 5e 3e 81 aa 87 bd 39 36 7d bd
       -0.45012167 0.21712708 -0.06624318 -0.06181929
0001a0 77 58 42 3d d5 73 da 3c 72 0e a6 be 6c 39 8f 3d
       0.047447648 0.026666561 -0.32432896 0.06993374
0001b0 a8 7b 78 be ad 4b 96 bd ef 4d 66 be d2 76 76 3e
       -0.24265921 -0.07338653 -0.22490667 0.24068764
0001c0 28 90 d4 be 81 4b 98 3e 67 1a 4d be a5 1d 52 3e
       -0.41516232 0.29745105 -0.20029603 0.20519121
0001d0 e7 3a 4b be 1a e6 01 bf 75 94 54 be 54 e5 f0 bd
       -0.19846688 -0.5074173 -0.20759757 -0.11762491
0001e0 c6 ba 45 3c 69 7a a0 bd 3b d5 c3 3e 01 99 1f bd
       0.012068456 -0.07835848 0.3824862 -0.038964275
0001f0 73 ab de bd 28 d4 af be 36 b8 1a be f1 a9 38 be
       -0.10872545 -0.3434155 -0.15109333 -0.18033578
000200 1b 92 d2 3d ba 46 6a bc e9 df d9 bc 8a 4d cb be
       0.10281774 -0.014299089 -0.026596026 -0.39707595
000210 bd fc 25 3e 1f 79 b3 bd 5a eb 6e be 55 db c6 3d
       0.16209693 -0.087633364 -0.23331967 0.09709803
000220 c6 2f 8c 3d c3 4d 94 be 22 00 9d 3e 65 32 ee be
       0.068450496 -0.28965577 0.30664164 -0.46522823
000230 49 0f 2f 3d b3 79 2b be 45 a2 50 be 73 cd f8 bd
       0.042739186 -0.16745643 -0.20374401 -0.12148561
000240 26 88 54 be 15 44 8e be 12 bf 0a bd c0 79 8c be
       -0.20755062 -0.27786317 -0.033873625 -0.27436638
000250 b6 74 69 3e 3a 26 2a be a9 4c 0f be 9a 5f 6d be
       0.22798428 -0.16616145 -0.13994087 -0.23181
000260 8b 83 c6 be 5c 74 16 3d 1f 02 46 3e 96 65 7e be
       -0.38772234 0.036732063 0.19336747 -0.2484344
000270 2d 8b 23 bf 48 b0 81 3d 91 ae 33 3b 07 9a 81 3e
       -0.6388424 0.06332451 0.0027417282 0.25312826
000280 53 5c 42 3e 18 e3 58 be 9e e2 0f be c9 b7 1a 3e
       0.18980531 -0.2118038 -0.14051291 0.15109171
000290 2f 34 39 be c7 1b 88 3b ea 51 0a be 2a b1 d9 be
       -0.18086313 0.004153702 -0.1350781 -0.42517978
0002a0 73 53 92 3d 45 77 d0 bd 75 c5 90 be 65 3c 9e be
       0.07144823 -0.10178999 -0.28275648 -0.30905452
0002b0 f4 8f 21 3e b3 2b 76 3e 6a 4a 1e bc e3 dc 83 3e
       0.1577757 0.24040107 -0.009661296 0.2575446
0002c0 e2 b0 0f be 52 c7 72 3e d4 05 31 be e5 80 8a be
       -0.14032319 0.23708847 -0.1728738 -0.27051464
0002d0 61 08 1d be e2 74 ed be 49 5b ae 3c df 35 01 be
       -0.15335228 -0.46378237 0.021283763 -0.12618206
0002e0 a4 84 3c be f0 eb a1 bd 96 23 a2 3d d9 cf a5 be
       -0.18409973 -0.0790633 0.07916944 -0.32385138
0002f0 c6 56 82 be 95 d8 c7 be 9f 68 37 be 30 b0 09 bf
       -0.25456828 -0.39032426 -0.17911004 -0.53784466
000300 62 a5 4e 3e 3e 65 0f be 3d 58 5c 3e 3f 51 a3 be
       0.20180276 -0.14003465 0.21518035 -0.31897923
000310 99 52 c0 be d9 f8 d5 bc 68 17 0a 3e 75 4a b4 bd
       -0.37563017 -0.026119636 0.13485491 -0.08803264
000320 58 8a fa 3b 19 48 cf bd 01 8a 7f 3c 17 ba d5 be
       0.0076458864 -0.101211734 0.015596868 -0.41743538
000330 0c b1 da bd 7a 36 2a bc cb ab ba be 6a ce 8c be
       -0.106783 -0.010388965 -0.36459193 -0.2750123
000340 6e 4a 3b 3e 99 79 a3 be 19 fe 4c be 17 32 36 be
       0.18290111 -0.3192871 -0.20018806 -0.17792545
000350 60 98 b6 bd 0f a9 eb 3c 81 e3 d2 bd c2 20 f3 bd
       -0.08915782 0.028767137 -0.10297299 -0.118714824
000360 7e be ee bd bc 7c da 3d e2 7f b7 bd 9c 4f b0 bd
       -0.11657427 0.106683224 -0.089599386 -0.08608934
000370 99 af 80 be 84 11 54 3d a2 38 07 3e bd f5 e4 3d
       -0.2513397 0.051774517 0.13205197 0.11179683
000380 64 bd 43 3e 2a 95 8b be 79 28 8f bd 94 27 24 3e
       0.19115216 -0.2726224 -0.069901414 0.16030723
000390 3e 53 46 3b f7 89 4f bc f5 ba 18 be 06 ae a0 be
       0.0030262019 -0.012667171 -0.14915068 -0.3138277
0003a0 d3 dc 19 be ca 91 72 be a6 ba 45 be 00 59 27 be
       -0.15025644 -0.23688427 -0.19309482 -0.16342545
0003b0 a2 42 0c bc 99 4b 45 3d ad bb de 3d a3 fb 4f 3e
       -0.008560808 0.0481678 0.1087564 0.20310836
0003c0 c4 b2 93 bc 03 bd 8c bc d3 6e 8b 39 11 61 b7 3d
       -0.018029578 -0.017179972 0.00026594716 0.08954061
0003d0 ee 96 c1 bd 5e b6 80 be 81 8a fc bc 38 84 df be
       -0.09452616 -0.25139135 -0.030827763 -0.43655562
0003e0 47 41 62 3d 35 3a 2f 3d 76 31 d9 3d 38 77 c3 be
       0.055238035 0.04278012 0.10605137 -0.38176894
0003f0 60 93 5b be 5a 7d e1 be 4b 14 d3 bd 0f 2a f0 be
       -0.21442938 -0.44040948 -0.10306605 -0.46907088

arith.constant5 f4 [64]
000000 8c 01 3f be 97 4b d3 3e a2 98 fd bc 3b 6e 89 3e
       -0.18652934 0.41268608 -0.03095657 0.26841912
000010 6e c0 2f 3e a1 89 8a 3e 00 c4 5e 3e bf 10 2d 3f
       0.1716325 0.27058128 0.21754456 0.6760368
000020 5f fe 17 3d e6 e6 0a be 74 49 1d bd e0 ee 20 3e
       0.03710782 -0.13564643 -0.03840013 0.15716124
000030 7e c6 55 be 1f 73 09 3f f7 fd f4 3e 95 f4 4a be
       -0.208765 0.53691286 0.4785001 -0.19819863
000040 1d b8 77 be c3 d1 3e 3f cd 9b 9f 3e 9d e6 16 3e
       -0.24191327 0.7453882 0.31173554 0.1473641
000050 80 5b 86 3f 9e 7b 4e bd 8f d7 9b be ca 13 7e bd
       1.0496674 -0.05041086 -0.30437896 -0.06203059
000060 ea 66 1e 3f 68 4c d0 3c 8d 73 a3 bd 6c 84 9a bd
       0.61875784 0.025427058 -0.07981024 -0.07544789
000070 a2 ad 67 3e 93 0b c8 bd 59 24 b4 bd 89 50 b4 3e
       0.2262483 -0.097678326 -0.08795995 0.35217693
000080 ae 52 06 be 75 85 cc bd e4 e7 28 3e 9d dd d3 3e
       -0.13117477 -0.099863924 0.16494709 0.41380015
000090 8c e7 ea bd 42 57 95 3e 2c 4d bc 3e ce 19 c4 3e
       -0.11469945 0.29168135 0.36777627 0.38300937
0000a0 09 13 2f 3f 35 0b a2 3e b5 06 0b 3f 0a c0 c5 bd
       0.6838842 0.31649175 0.5430711 -0.09655769
0000b0 5c 23 84 be a9 f5 16 3f 46 ca b9 3e 81 5e 72 3f
       -0.25808227 0.589686 0.36287135 0.9467545
0000c0 5d b3 04 3f 87 bd 9d 3e 40 01 98 bd 69 00 2c 3f
       0.51836187 0.3080866 -0.074221134 0.67188126
0000d0 71 39 31 3e 66 08 ae 3e 10 16 12 3f e3 f5 61 3d
       0.17307068 0.33990782 0.57064915 0.055166136
0000e0 6a c2 a3 3e 5f eb 60 3d 71 c7 8d 3f c4 d3 7b 3e
       0.31984264 0.054911967 1.107649 0.24592501
0000f0 7a ff af 3c 49 dd 71 3e ca 44 22 3f 51 96 b5 3e
       0.021484125 0.2361957 0.63386214 0.35466245

sequential_1_1/batch_normalization_1_2/batchnorm/mul f4 [64]
000000 6b 6a 99 3e 42 b8 8e 3e f5 4b 81 3e 58 2f c0 3d
       0.29964003 0.27874953 0.25253263 0.0938403
000010 5c 49 92 3e 1e 0d 64 3e 9e 81 75 3e fc 49 d7 3e
       0.28571594 0.22270629 0.23975226 0.42048633
000020 41 40 b1 3e df bd 05 3f 73 b1 1e 3e 73 ec 8a 3e
       0.34619334 0.52242845 0.15497379 0.2713352
000030 57 aa a9 3d 9a fa 4d 3e 57 ee 43 3e 4b 7a 02 3f
       0.08284443 0.20115128 0.19133888 0.50967854
000040 6f db 9f 3e 28 c2 28 3e f7 97 dd 3e 5d 20 c0 3d
       0.31222102 0.16480315 0.43280002 0.09381173
000050 fa bd 83 3e 1f 9f c0 3e 3f 9a d7 3e 96 60 d2 3e
       0.25730878 0.376214 0.42109868 0.41089314
000060 62 2b 4f 3e 8e e3 9c 3e 62 6c 83 3e 27 0d 5f 3e
       0.20231393 0.3064236 0.25668627 0.21782361
000070 c2 77 80 3d 5f 79 81 3e c2 e0 cf 3e 9a 49 41 3e
       0.06272842 0.2528791 0.40601164 0.18875733
000080 48 99 7c 3e b7 f1 c1 3e fc d7 7c 3e 62 d7 80 3e
       0.24667847 0.37879726 0.24691767 0.25164324
000090 f6 5c 83 3e f8 21 14 3f 42 c0 60 3e 57 f5 ce 3e
       0.2565686 0.5786433 0.2194834 0.40421554
0000a0 0c 23 23 3e ab 95 13 3e 33 c2 59 3e 19 fd c7 3e
       0.15931338 0.14412563 0.21265487 0.39060286
0000b0 53 f4 30 3e b0 e2 72 3e a5 10 70 3e 0d 20 02 3f
       0.17280702 0.23719287 0.2344385 0.50830156
0000c0 e8 a6 b7 3e 2d ed 0f 3e f1 74 8d 3e 53 25 fc 3e
       0.35869527 0.14055319 0.27628282 0.49247226
0000d0 08 71 42 3e d8 31 0a 3e 7c d8 25 3e 70 82 cc 3e
       0.1898843 0.13495576 0.16195863 0.39943266
0000e0 7d 06 1c 3f 15 c8 9a 3e 96 4a 96 3e a2 74 9e 3e
       0.609474 0.30230775 0.2935378 0.3094836
0000f0 4d b5 ae 3e 0f a5 a4 3e fe f5 a8 3e 60 48 33 3e
       0.34122697 0.3215718 0.33000177 0.17508078

sequential_1_1/batch_normalization_1_2/batchnorm/sub f4 [64]
000000 96 db e4 be 24 6a d9 be b9 61 0c bf 46 04 d2 be
       -0.4469878 -0.4246379 -0.5483661 -0.41018885
000010 62 46 f1 be 7e a5 af be 65 a8 04 bf 48 0b c1 be
       -0.4712401 -0.34305948 -0.5181945 -0.3770392
000020 a3 dc 8b be 62 1c 88 be c6 31 e9 be da f7 ca be
       -0.2731677 -0.26584154 -0.45545787 -0.3964222
000030 18 86 65 bf 4a fd e1 be d7 d2 1b bf 4d 2c a1 be
       -0.89657736 -0.44138557 -0.6086859 -0.3147911
000040 67 02 fc be da a9 f0 be d3 0a 24 be c5 ba 01 bf
       -0.49220583 -0.47004586 -0.16019754 -0.5067561
000050 9e 98 e1 be cb 47 f6 be 54 68 19 bf 21 55 43 be
       -0.4406175 -0.4810165 -0.5992482 -0.19075443
000060 3b 0a f2 be 39 22 ab be c2 e0 00 bf ae a6 e5 be
       -0.4727343 -0.33424547 -0.50342953 -0.4485373
000070 31 e0 85 bf e7 9b 9c be c8 3a b0 be b9 12 fa be
       -1.0459043 -0.30587694 -0.34419847 -0.4884241
000080 15 68 81 be 35 2b 55 be 0f 71 28 bf c6 45 62 be
       -0.2527472 -0.20817263 -0.65797514 -0.22096929
000090 8c 27 6c be 2f 9c 8d be 17 0d 14 bf 41 05 87 be
       -0.23061961 -0.2765822 -0.57832474 -0.26371196
0000a0 51 9e 04 bf 42 57 08 bf c3 0c 52 be 51 4b 9f be
       -0.5180407 -0.53258145 -0.2051268 -0.3111215
0000b0 eb 66 b2 be 5e ff ee be 9c f3 fa be a2 b4 1f be
       -0.34844145 -0.46679205 -0.49013984 -0.1559625
0000c0 d0 be 54 be 3c 42 58 bf a4 8b 66 be 82 26 f9 be
       -0.20775914 -0.84476066 -0.22514206 -0.48662192
0000d0 9c 60 28 bf c2 f3 6f be 16 f3 04 bf 8c 17 f1 be
       -0.65772414 -0.2343283 -0.5193342 -0.47088277
0000e0 c8 0c 0d bf 73 b2 00 bf 9e da 0e bf 54 8f 44 be
       -0.5509763 -0.5027229 -0.55802333 -0.191953
0000f0 42 0a b3 be ca e4 05 bf 6c f7 e8 be 32 e7 96 be
       -0.34968764 -0.5230223 -0.45501268 -0.29473263

sequential_1_1/batch_normalization_1/batchnorm/mul f4 [96]
000000 05 ed 0a 41 0b 6f 22 41 21 45 80 41 cd d8 e2 40
       8.682866 10.15211 16.033754 7.088965
000010 af d7 bd 41 f0 91 88 41 99 9a cc 41 38 1a 88 41
       23.730314 17.071259 25.575487 17.012802
000020 6f 15 d0 41 ea f4 e6 41 c0 98 e5 41 67 d8 53 41
       26.010466 28.869587 28.699585 13.240333
000030 da d5 78 41 2a 5c c9 41 52 29 2a 41 c1 df d7 41
       15.55221 25.170002 10.635088 26.984255
000040 72 ae b6 41 50 75 ab 41 fa 88 97 41 b0 a6 1e 41
       22.835178 21.432281 18.941883 9.915695
000050 ef c3 d6 41 74 ce 37 41 1f 9a 71 41 a7 62 d1 41
       26.84567 11.487904 15.100127 26.17317
000060 d6 e1 05 41 7f 1e ea 41 58 75 c9 40 e4 0a 70 41
       8.367636 29.26489 6.295574 15.002659
000070 5e cb ea 41 48 55 e2 41 25 c3 f3 41 57 21 ce 40
       29.3493 28.291641 30.470285 6.44157
000080 19 9d 53 41 f3 77 0b 42 57 e7 cd 40 b8 1a b3 41
       13.225854 34.867138 6.4344897 22.388046
000090 03 5f 0d 42 77 2e 8b 41 d3 4f 48 41 2d 0c e8 40
       35.342785 17.397688 12.519488 7.2514863
0000a0 44 73 0a 42 de e4 ce 41 88 1f 17 41 27 5d 22 41
       34.612564 25.861752 9.445198 10.147742
0000b0 30 94 81 41 a3 77 e0 41 6f df ae 41 64 7f 02 42
       16.197357 28.058416 21.859098 32.624405
0000c0 08 b0 f3 41 17 71 87 41 0f 29 bf 41 38 08 9c 41
       30.460953 16.93022 23.895048 19.504013
0000d0 ee 6c d2 40 a7 b8 d4 41 03 b0 ca 41 ce 08 cb 41
       6.575797 26.590162 25.335943 25.3793
0000e0 c8 72 65 41 2b b6 67 41 2e 49 af 41 aa 50 e6 40
       14.340523 14.481975 21.910732 7.1973467
0000f0 b9 9e 82 41 20 de f8 41 fd fd ea 41 f7 cc a2 41
       16.327501 31.10846 29.374018 20.35008
000100 58 3c 08 42 1f 74 ba 41 ff d9 ea 41 b8 b6 96 41
       34.05893 23.3067 29.356443 18.839218
000110 66 de 89 40 c6 47 d8 40 70 50 fc 40 d2 c6 a4 41
       4.3083982 6.7587614 7.884819 20.59708
000120 8f 08 c4 41 bf b4 cd 41 5d 5a c0 41 36 28 13 42
       24.504179 25.713255 24.044123 36.78927
000130 1d e0 36 40 02 4b ed 41 42 fd de 40 25 32 d0 41
       2.8574288 29.661625 6.9684153 26.024485
000140 a0 86 f7 40 54 6c 90 41 93 6c c6 41 47 e3 3a 41
       7.7351837 18.052895 24.803015 11.680488
000150 92 8a a9 41 61 82 68 41 57 27 03 41 32 0c 09 41
       21.192661 14.531831 8.197104 8.565477
000160 6c 98 0e 41 45 fe bd 41 a6 4a 23 41 ec 3c b9 41
       8.912212 23.749155 10.205725 23.154747
000170 fd 39 69 41 06 a8 d6 41 cf 1b 9e 41 1e f5 37 40
       14.576657 26.832043 19.763578 2.8743358

sequential_1_1/batch_normalization_1/batchnorm/sub f4 [96]
000000 5b 46 8e be 56 9f c5 be a4 08 2d be 55 8b e2 be
       -0.27788052 -0.38598126 -0.16897827 -0.44246927
000010 7c c5 d4 3d 18 f1 70 be e6 ee db be 06 e7 44 bf
       0.1038923 -0.2352947 -0.42955703 -0.76915014
000020 d7 47 77 3e 78 0a ab 3e 60 18 e9 3c 67 21 42 bf
       0.24148498 0.33406425 0.028454006 -0.7583222
000030 fb 47 28 bf 8a c4 98 3b 8a 3e 98 be 54 32 b4 3e
       -0.65734833 0.004662101 -0.29735214 0.35194647
000040 84 90 2a bd f7 02 28 bf 1c 6e 78 be 78 ee 0d bf
       -0.041641727 -0.65629524 -0.24260753 -0.55442
000050 b6 c4 64 bf 94 26 a8 bd 52 c3 01 be 39 8a cb be
       -0.8936266 -0.08210483 -0.12672165 -0.39753893
000060 9f e6 1b c0 8e 81 a9 3e 4a 51 ba be d6 0c f8 bd
       -2.435951 0.33106655 -0.36390144 -0.12111823
000070 98 35 c3 3e 5f 82 fc bd d9 75 32 3f d7 e4 14 bf
       0.38126826 -0.12329554 0.6971107 -0.5816168
000080 7d b1 20 bf 50 98 4d be ac d2 be be 04 03 19 bf
       -0.62770826 -0.20077634 -0.37270105 -0.59770226
000090 f6 b0 13 be 1d 25 9e bd b7 90 55 be df ae 74 c0
       -0.14422974 -0.077219225 -0.20855986 -3.8231733
0000a0 90 ca 0c 3e e4 70 19 3d 9e fc f1 bd 52 20 2f bf
       0.13749146 0.037461177 -0.11815761 -0.6840869
0000b0 b5 be 6a be 00 65 cb ba 0b 3e eb be 64 4f 68 be
       -0.22924311 -0.0015517771 -0.45945773 -0.22686535
0000c0 9a 06 22 bf c2 c7 86 bd e0 df f5 be 59 d8 24 bf
       -0.63291323 -0.065810695 -0.48022366 -0.6439262
0000d0 a0 84 28 bf f8 59 42 bd f0 da 80 be 64 69 84 3d
       -0.6582737 -0.047449082 -0.25167036 0.06465414
0000e0 a8 f9 9c be c3 f8 5a bf 64 5b 3f 3d bd 95 15 bf
       -0.30659223 -0.8553583 0.046718016 -0.5843161
0000f0 a0 f8 d9 3d e2 d4 2a 3f 2a ff 16 bf 70 eb b9 bc
       0.106431246 0.66731083 -0.589831 -0.022695273
000100 9e 77 46 be 83 93 08 3e a2 8f e8 bb e4 9d fe be
       -0.19381568 0.13337521 -0.0070972005 -0.49729836
000110 04 49 a1 be 27 ce e6 be eb d6 5d c0 97 70 27 3c
       -0.3150102 -0.45079157 -3.4662426 0.010219715
000120 a6 0d 5d 3e b8 6a 4e 3c f6 6b 63 be d0 8c 06 bd
       0.21587238 0.012598686 -0.22209153 -0.032849133
000130 68 7a 56 bf 61 92 fa bd 0c 01 8d be 8c 0a ce bc
       -0.8378053 -0.12234951 -0.2753986 -0.025151514
000140 2e 18 d1 be f3 34 61 bf 02 1f 74 bf a8 3a 02 bd
       -0.4083876 -0.8797142 -0.95359814 -0.03179422
000150 64 27 13 be ef 7a 2e bf c2 e8 47 bf 42 8d 3d bf
       -0.14370495 -0.6815633 -0.78089535 -0.7404367
000160 83 3b de bd 9e a6 43 bd ba bd 3f be 90 9d ef be
       -0.10851195 -0.04776632 -0.18724719 -0.46799898
000170 fc d6 5b bf ab 60 06 3f a9 e9 87 be 93 91 9e be
       -0.85874915 0.52491254 -0.26545456 -0.3097044

sequential_1_1/conv2d_1_1/convolution f4 [96, 3, 3, 1]
000000 1e da 18 3e 1c 7b 1b 3e 06 b3 ab 3e d6 b0 12 bd
       0.14926955 0.15183681 0.33535022 -0.035813175
000010 49 10 69 3d a8 38 05 3e eb b5 7c be b2 4e b1 be
       0.056900296 0.13009894 -0.24678771 -0.34630352
000020 1a a3 06 be 04 b7 2d 3d cf 34 59 3e 72 92 51 3e
       -0.13148156 0.042410865 0.21211551 0.2046602
000030 2b a8 0a be c8 43 53 3e f2 3c bd 3d 33 a4 c3 be
       -0.13540713 0.20631325 0.0924014 -0.38211212
000040 25 23 90 be f5 4b 8f be 86 f4 7c 3e ea 6c 17 3e
       -0.28151813 -0.27987638 0.24702653 0.14787641
000050 ef 20 35 be 46 d8 91 bd a1 ed 71 3e e2 16 20 3e
       -0.17688344 -0.07121329 0.23625804 0.15633729
000060 a5 0c a5 be 71 6e cb bd 0b 36 89 3e 98 95 7d be
       -0.3223621 -0.099331744 0.26799044 -0.24764097
000070 89 0a a1 be 31 e9 35 be 5c 26 3d bd b1 75 3e 3d
       -0.3145335 -0.17764737 -0.04617916 0.046498958
000080 01 de 02 3e 32 47 ba 3e 5b b7 2b 3e 0c a6 5a 3d
       0.1278 0.36382443 0.16769163 0.05338101
000090 0c 24 bc be 73 f0 e1 bd ce ab a9 3c be 8d cd 3d
       -0.36746252 -0.1103219 0.020711806 0.10036801
0000a0 e2 22 e7 bd 40 b2 ca be a4 8a a7 3e 5b 92 86 3e
       -0.1128595 -0.3958912 0.32722962 0.26283535
0000b0 00 d5 95 be 12 fe 85 be 68 fa a1 be 47 d5 07 3e
       -0.2926407 -0.26170403 -0.31636357 0.13264953
0000c0 66 19 ec bd c8 43 08 3e 1f 65 05 3e 3c 9e 01 bf
       -0.11528282 0.13307106 0.13026856 -0.5063207
0000d0 59 d5 ef bd b8 b8 5e 3e 2f e1 a1 be 2a 93 67 bc
       -0.11710615 0.21750152 -0.31617114 -0.014134208
0000e0 13 31 a7 3e 04 4f 2f be 75 20 ca be d6 da 12 3d
       0.32654628 -0.17119986 -0.39477888 0.03585323
0000f0 8c b1 6e 3e 08 c8 9e bd cb ed 6c be e1 41 0a 3e
       0.23309916 -0.07752997 -0.23137586 0.13501693
000100 6a 8b 87 be 42 02 bb 3d 77 2b 4e 3e bc 59 be be
       -0.26473552 0.0913129 0.20133768 -0.37177837
000110 9d 63 2d 3e 69 00 a6 3d d7 4d 92 be 1e 90 39 3e
       0.1693253 0.08105547 -0.28575012 0.18121383
000120 d0 46 75 3d 58 d0 62 bd 8f 2d 65 bd 20 22 28 3d
       0.059881985 -0.055374473 -0.05595165 0.04104817
000130 40 d9 1e bd 1b 6d 94 3d 57 c1 6f bd 8c ab a3 bd
       -0.038781404 0.07247373 -0.058533993 -0.07991704
000140 92 95 10 3e 47 50 ab bd 96 c2 38 3c 97 f5 1f bd
       0.14119557 -0.08364921 0.011276862 -0.039052572
000150 b6 be 35 bd be 17 79 bd 82 49 f5 3c 5e fa f9 bc
       -0.04437133 -0.060813658 0.029942278 -0.030514892
000160 15 6c 86 ba 7e 75 36 bd 9c 0b 51 bc 27 37 15 bc
       -0.00102556 -0.044545643 -0.012759116 -0.009107388
000170 b0 00 84 bd a4 eb ca 3c fb 9a 04 bd c0 a2 de bc
       -0.06445444 0.024770565 -0.032374363 -0.027177215
000180 8f 5f cc bd a4 38 1d bd af b5 a9 3c 16 cf 1b 3e
       -0.09979164 -0.038384095 0.020716516 0.15215716
000190 ee 24 86 be bd 1f 61 be 11 c6 f1 be 4c 1a 73 bd
       -0.2620005 -0.21984763 -0.47221425 -0.05935125
0001a0 ed a0 ae 3d ef d8 51 be 77 fd df 3d 36 90 8c 3e
       0.08526788 -0.2049291 0.109370165 0.27453774
0001b0 13 c5 c1 3b c1 8f 2a 3d 59 f5 98 3c b1 09 d8 bb
       0.0059133857 0.041641 0.018671678 -0.006592952
0001c0 e9 e1 f9 be 8e b0 d8 be 11 68 9b 3e 64 15 ac be
       -0.48805168 -0.423222 0.30352834 -0.3361007
0001d0 3a f1 33 3d d5 01 06 3d dd 8c 28 bd 1f e5 e8 3c
       0.043931223 0.03271659 -0.041149963 0.028429566
0001e0 68 35 fb bc 96 3c a4 bd 32 d2 9a bc de ad 1b bc
       -0.030665115 -0.08019368 -0.018899057 -0.009501902
0001f0 55 36 be bc c3 7f f7 3c 9d c6 d5 be 24 1e b8 3d
       -0.023219267 0.030212289 -0.41753092 0.08990124
000200 91 d7 76 3e 7c c8 0b be 44 8a 51 3e da c0 6f 3e
       0.2410567 -0.13650697 0.204629 0.23413411
000210 bb 91 9b be 5b 2f 1f be 29 6c e3 3c d1 b0 89 3d
       -0.3038462 -0.15545408 0.027761536 0.06723178
000220 05 64 c5 3c 43 4d d4 3c c4 c2 81 bd 94 d1 fa bc
       0.024095545 0.025915748 -0.06335977 -0.030617513
000230 5c 01 8f ba 49 ef 9e 3d 2f fb 2e 3d bc 9e 2a bd
       -0.0010910439 0.07760484 0.042720016 -0.041655287
000240 79 30 2c 3e 82 5d aa 3d c9 ba 3b 3e 39 57 09 3e
       0.16815366 0.083186164 0.18332972 0.13412179
000250 cb b2 19 3a 09 0f 6c 3d 91 47 8c 3e 22 b2 8d 3d
       0.0005863129 0.057631526 0.2739835 0.06918742
000260 82 5d 64 be d9 72 ee be f1 62 3c be a6 90 e2 be
       -0.22301295 -0.46571997 -0.18397118 -0.44250983
000270 3d 62 d5 be aa ed 91 3e ac 83 14 be 02 a1 b7 bd
       -0.41676512 0.28501636 -0.14503354 -0.08966257
000280 e1 57 5e 3e c2 8f 45 3e 8f 15 f4 bc 02 d9 52 3e
       0.2171321 0.1929312 -0.029795436 0.20590594
000290 00 d4 74 3e 72 83 a4 be b0 3e a6 3d 44 16 ff 3c
       0.23908997 -0.32131535 0.081174254 0.031138547
0002a0 10 83 bb be 34 92 95 be a7 0c f1 be 09 cb dd be
       -0.3662343 -0.29213107 -0.47079965 -0.43318966
0002b0 c1 d2 d0 3d 7a 32 f9 be 43 b2 2b be ea 9f 71 3d
       0.10196448 -0.48671323 -0.1676722 0.058990397
0002c0 11 ba 8e bc f6 c3 58 bc 17 81 7d bd 09 39 04 bf
       -0.017422708 -0.0132303145 -0.061890688 -0.5164953
0002d0 aa 98 ae 3e 2c 27 f9 bd 64 c0 07 bf e4 53 05 bd
       0.34100848 -0.121656746 -0.5302794 -0.032550707
0002e0 a1 0a 3f 3e 72 8e 52 be ab 45 c5 be 02 7a 37 be
       0.18656398 -0.20562151 -0.38529715 -0.17917636
0002f0 32 76 0b bf 97 0e 73 3e 4c 9f fb bd ef fa c5 be
       -0.54477227 0.23736034 -0.12286243 -0.3866801
000300 fb 34 81 3d 23 87 c6 3c 71 67 3c be f9 20 e7 3d
       0.06308933 0.02423436 -0.18398835 0.11285586
000310 a2 8f 4d 3e 96 ec 3d 3e 3b 8f e4 bb 51 b0 14 bd
       0.20074323 0.18547282 -0.006975082 -0.03630096
000320 87 a9 e8 bd 37 7e 6a 3e 28 e3 5e 3e 87 e0 c5 3e
       -0.1136046 0.2289971 0.2176634 0.38647863
000330 f0 bb 88 be 19 cb 6e be d0 d6 13 be 4a 6c 27 3e
       -0.26705885 -0.23319663 -0.14437413 0.16349903
000340 bf 9a a9 3e 1e 6a 99 be 21 59 b6 bd fb 35 57 3e
       0.33125874 -0.29963773 -0.08903719 0.21016686
000350 2f 3a d8 be dd 6d dd be 4e ba b1 be c8 db 28 be
       -0.4223189 -0.43247882 -0.34712452 -0.1649009
000360 18 63 c9 bd 74 ce 2d 3e 5a 3f 64 3d ef da 34 bc
       -0.09833354 0.16973287 0.05572448 -0.011038526
000370 0c 95 a6 3e 5c 8d 60 bd f0 02 9b 3d a1 3b c3 bb
       0.3253559 -0.05482231 0.0756892 -0.005958036
000380 09 6b d7 be 02 2b 8e bd 49 24 d2 bb 4a f7 9f bc
       -0.4207385 -0.06941797 -0.006413017 -0.019527096
000390 f9 c4 ba bc b4 90 9b 3c fd 58 61 3c 62 26 73 bc
       -0.022799002 0.018989898 0.013754127 -0.014840694
0003a0 d2 51 07 3d 0a fa 0e bd 0e 7d 9f be 78 59 a7 be
       0.033037014 -0.034906425 -0.31150097 -0.32685447
0003b0 28 7b 9b bd 45 00 8b 3a 57 78 22 3d 6b 2b 31 3d
       -0.075918496 0.0010604939 0.039665546 0.043254297
0003c0 15 45 85 3e f2 aa 49 3e 46 bf 53 3e 07 29 8d 3e
       0.26029268 0.19694117 0.20678434 0.27570364
0003d0 4d 4e ee 3c 02 b4 98 be 74 1c ef bc d4 a8 19 3e
       0.029090071 -0.29824835 -0.029188372 0.15005809
0003e0 1d 00 00 be 48 0f 93 3e c0 75 0a 3e e8 d4 79 be
       -0.12500043 0.28722596 0.1352148 -0.24397624
0003f0 94 8b 3d bd d8 ce fe bc 30 08 fe bc e0 af 88 bb
       -0.04627569 -0.03110449 -0.031009763 -0.0041713566

sequential_1_1/conv2d_1_1/Relu;sequential_1_1/conv2d_1_1/BiasAdd;sequential_1_1/conv2d_1_1/convolution; f4 [96]
000000 a8 de 2f bd 64 9d df 3c 34 88 8b be ee e0 7d 3c
       -0.04293695 0.02729673 -0.27252352 0.015495522
000010 c2 cf 2d bd f9 9c d7 bc 39 86 87 3c 32 ce 89 3c
       -0.04243446 -0.026319968 0.016543495 0.016821954
000020 c4 09 cf be 63 26 9e bd 3e a0 8e bd f7 b7 ac 3d
       -0.40437138 -0.077221654 -0.069641575 0.08433526
000030 a7 2a 50 3d 02 02 85 bd 83 b3 71 bc a6 f5 5b be
       0.050821926 -0.064945236 -0.014752272 -0.21480426
000040 f6 04 08 bf 71 8f 4b 3d 89 48 09 3d 81 b8 88 3e
       -0.5313257 0.049697343 0.03351644 0.26703265
000050 fd 68 6d 3d 7c ea 3c be 08 ce b5 bd dd d5 14 3d
       0.057961453 -0.18448824 -0.08877188 0.03633677
000060 83 47 82 3e 7e 89 77 bd 0f 78 cf bc 54 b6 3b be
       0.25445184 -0.060433857 -0.025325803 -0.18331271
000070 e7 f4 61 bd 2e e4 94 be ed 99 46 bd fd 16 c1 bc
       -0.055165198 -0.29080337 -0.04848664 -0.023570532
000080 55 4a 45 3d fc 41 a6 3c 17 04 02 bd 7c 28 a1 3d
       0.04816659 0.020295136 -0.03174218 0.0786905
000090 0b 9f 84 bd 15 4a 6e be 8e aa a1 bd be 53 0a 3f
       -0.064756475 -0.23270448 -0.07893859 0.5403403
0000a0 79 52 0f bc 89 65 06 be 99 4a ec bd fb 23 77 3c
       -0.00874769 -0.1312467 -0.11537666 0.015084262
0000b0 0d 40 82 be 1d 1f 51 3c f7 3d 32 3d 7a c5 dc 3c
       -0.25439492 0.012763766 0.043516126 0.026949633
0000c0 68 da 3a bd 67 fe 13 bd 07 3f 9d 3c 03 0d 18 3d
       -0.045618445 -0.03613129 0.019195093 0.037121784
0000d0 58 d8 b0 3d 32 89 8a be 10 0a 63 bc de b2 b4 be
       0.08635014 -0.27057797 -0.01385738 -0.35292715
0000e0 d2 8e 00 3d 78 c6 04 3c 52 e8 63 be 11 97 0c 3d
       0.031386204 0.008103959 -0.22256592 0.034323756
0000f0 e9 86 52 bd d7 62 85 bc 34 1d 12 3d 81 a9 3b be
       -0.05139819 -0.016282482 0.03567238 -0.1832638
000100 82 ca 49 bc e0 4c 94 bb 3a 29 ae bd c1 e7 8c 3d
       -0.012316348 -0.004525766 -0.08503957 0.06880141
000110 c8 60 2d 3c b5 ee 36 3d 39 47 ec 3e 59 de 5f bd
       0.0105821565 0.044661243 0.4614809 -0.054655407
000120 cb de 36 bd fd 7a 06 bd 4d 9f 10 bd e7 0c 8e be
       -0.044646066 -0.032832135 -0.03530817 -0.2774422
000130 34 d1 21 3e 55 3f 55 be 82 1c 0a bd 5b 46 c1 be
       0.15802461 -0.2082494 -0.033718593 -0.3774899
000140 ba 8d 8f bc 1f 12 2e 3d 93 ec 5b 3d 8f 03 e8 bd
       -0.017523635 0.04249775 0.05369241 -0.11328804
000150 30 3b 18 3c a2 78 af bc c0 17 11 3d 82 1f 00 3d
       0.009291455 -0.021419827 0.03542304 0.03128005
000160 cb f7 72 bd 15 2c 77 bd 79 00 9d bd 59 cb 97 3c
       -0.059318345 -0.060344774 -0.07666106 0.01852958
000170 f2 20 c4 3c 2c 07 70 bd a8 ef 92 bb df 02 d7 3c
       0.02394149 -0.05860059 -0.0044841357 0.026246486
